best_model_ATT.pt (torch, 75490 bytes, 83 tensors)

emb_pers.weight f4 [5, 2]
000000 a3 8c d4 3b 88 03 2a c0 b0 81 e9 be 4a a1 d4 3e
       0.0064864918 -2.6564655 -0.45606756 0.41529304
000010 ef 1f 09 40 04 98 9d be f7 c5 06 3f 53 e5 29 3e
       2.142574 -0.3078004 0.5264582 0.16591386
000020 e3 82 c6 3f 4a 94 0b 3f
       1.5508693 0.54523146

emb_pos.weight f4 [50, 2]
000000 7c 29 2b be 41 1d e4 bf 40 35 9b 3f 8d 5e 77 3f
       -0.16715044 -1.7821428 1.2125626 0.9662865
000010 43 12 40 3f c6 ec 24 bf eb f4 9e 3f 69 b8 fa 3e
       0.75027865 -0.6442379 1.2418493 0.4896882
000020 f4 2a 89 bc 75 ef 2e bf 16 79 0e 3e 10 5f a8 be
       -0.016744114 -0.6833413 0.13913378 -0.32885027
000030 15 84 3d 3f b2 82 0f c0 29 53 a9 3f 6b 5b e2 bf
       0.74029666 -2.242352 1.3228503 -1.7684149
000040 ab 5e 89 bf 9d be 4d bf b8 e5 98 3f 8d dd de bf
       -1.0732015 -0.8036898 1.1945105 -1.7411362
000050 ef b8 38 3e 63 6e 1c bf 3d a9 9d 3f ee ea 29 3e
       0.18039297 -0.61105937 1.2317272 0.16593525
000060 6a fb 4c bf 3a c0 26 bf ce a1 da 3e ab c1 5d 3f
       -0.8007113 -0.65137064 0.42701572 0.8662364
000070 94 42 a1 3f 36 86 92 3f 9a 52 8e 3f 79 4a 94 be
       1.2598443 1.1447208 1.1118958 -0.28963068
000080 75 ba 84 be 71 dc 39 3f b2 bd 85 3e 49 11 c0 bf
       -0.25923505 0.7260199 0.2612129 -1.5005275
000090 87 d4 00 40 bd d8 a1 3f 3c d2 8d bf de 4a 41 3f
       2.0129716 1.2644268 -1.1079783 0.75504863
0000a0 a5 2f 38 3f 7d 6b 15 3f 2c 14 24 40 a4 99 22 bf
       0.719477 0.5836714 2.5637312 -0.63515687
0000b0 cd 78 e3 bc 8d 59 75 be b0 1e 31 40 69 ec a1 be
       -0.027767563 -0.23959942 2.767498 -0.3162568
0000c0 6a 3b 88 3f 5b 2b 86 3f 0b d0 e4 3f 33 b8 1f bf
       1.0643132 1.0481981 1.787599 -0.6239044
0000d0 9a 61 e3 3e c7 aa 8f bf ab 70 37 bd f3 db 9c bf
       0.44410402 -1.1223992 -0.044785183 -1.2254623
0000e0 ab 39 ba 3f 97 a1 d8 be 60 a3 81 be b3 25 cb be
       1.4548849 -0.42310783 -0.25319958 -0.396772
0000f0 95 be 4f 3e 6d 06 af 3f 8d ab 74 3f 92 a5 00 be
       0.20287545 1.3673836 0.95574266 -0.1256316
000100 0c 8c 66 bf cb 11 1e bf f7 23 20 3f c4 27 3f bf
       -0.90057445 -0.617459 0.6255488 -0.7467005
000110 39 a1 d8 bf 14 aa 80 3f 29 06 3a bf 3c 6c 4d 3e
       -1.6924201 1.0051904 -0.7266565 0.2006082
000120 8f af 37 3f 1d c2 92 be b8 64 63 3f f0 d7 ce 3e
       0.71752256 -0.28663722 0.8882556 0.40399122
000130 e9 76 20 3c 75 f9 88 3f c0 94 b9 bf 29 49 6b bf
       0.009793975 1.0701128 -1.449852 -0.9190851
000140 4c 5b bb 3d 51 e4 3b bf ef 95 3f be d1 51 37 bf
       0.09148273 -0.7339526 -0.18709539 -0.71609217
000150 ce 64 9f 3e 2a 23 c7 be 36 fc 8a 3f f6 32 ee 3f
       0.31131595 -0.38894016 1.0858219 1.8609302
000160 01 73 31 bf 9b 1d 9b bd 6b a7 d4 3f 86 9e 0f be
       -0.6931611 -0.07574006 1.6613592 -0.14025316
000170 5d 41 85 3f 02 74 ba 3d f4 00 aa be 72 59 d2 3d
       1.0410572 0.09104158 -0.33203852 0.102709666
000180 a7 c9 83 bf 88 b3 50 3f 45 ea 5f 3f 6c 21 43 bf
       -1.0295914 0.8152394 0.8746684 -0.7622287

emb_punc.weight f4 [5, 2]
000000 14 ae 2e be 71 e4 e3 be 0b 69 e3 3d 11 21 5e bf
       -0.17058593 -0.44510224 0.1110402 -0.86769205
000010 0a 5d 3d be 50 df 7a 3e c2 9b 09 bf 55 d5 8d 3e
       -0.18492523 0.2449925 -0.5375329 0.27701822
000020 6c fa 94 be 89 98 b3 3d
       -0.29097307 0.08769328

emb_wsen.weight f4 [6, 2]
000000 72 70 ba 3e 66 32 36 3f bc 4b 05 bb 51 4d c3 be
       0.36413914 0.7117065 -0.002033933 -0.38144925
000010 91 de 3a 3f 38 d9 b8 bf bf 12 34 3e 33 1e 08 3e
       0.7299586 -1.444129 0.17585276 0.1329277
000020 39 80 d3 3f 1a e6 84 3f 12 39 b0 bf 1a 0b 39 3f
       1.6523505 1.0382721 -1.3767416 0.72282565

line_pers.weight f4 [2, 2]
000000 e8 e2 d7 be 13 ba 98 be 52 94 85 bd 46 ef 04 bf
       -0.42165303 -0.29829463 -0.065224305 -0.519276

line_pers.bias f4 [2]
000000 75 34 00 be bf e4 c4 be
       -0.12520011 -0.3845577

line_pos.weight f4 [2, 2]
000000 83 89 3a 3e e3 5c 81 3e ca 23 1e bf a0 90 6a be
       0.18216519 0.2526618 -0.6177336 -0.22906733

line_pos.bias f4 [2]
000000 11 7b c5 be be e5 c2 3e
       -0.38570455 0.38065904

line_punc.weight f4 [2, 2]
000000 1c d6 bc 3e 52 a6 c0 be 7e 9c 8e 3d 57 0e e9 3e
       0.36882102 -0.37626892 0.06963442 0.45518753

line_punc.bias f4 [2]
000000 1d 96 15 be e1 b3 b8 3e
       -0.14608045 0.36074737

line_wsen.weight f4 [2, 2]
000000 77 11 00 3e eb 64 14 be 97 24 39 be d5 93 42 3d
       0.12506662 -0.14491622 -0.18080364 0.047504265

line_wsen.bias f4 [2]
000000 fc f4 23 bf 36 b8 00 3f
       -0.6404569 0.50281084

line_freq.weight f4 [2, 1]
000000 2b 83 de 3e 81 17 d9 be
       0.43459448 -0.42400745

line_freq.bias f4 [2]
000000 3a 64 6f bf 39 62 0e 3f
       -0.9351231 0.55618626

line_wtox.weight f4 [2, 1]
000000 0b 68 cb 3e f2 39 76 3f
       0.39727816 0.9618217

line_wtox.bias f4 [2]
000000 61 f6 1c 3f 8a fe 0c bf
       0.61313444 -0.55075896

wordAttention.linear_layers.0.weight f4 [12, 12]
000000 3c ec 51 3e a0 9b 82 be e6 bd 77 be e3 ff 10 be
       0.20500273 -0.25509357 -0.24193534 -0.14160113
000010 6c 7f 37 bd 82 df 37 3e 2e 2a 76 be 84 ce 9b 3d
       -0.044799253 0.17956355 -0.24039528 0.07607749
000020 7a ba 3d 3e e2 c7 84 be a0 64 cd 3d 77 38 4c be
       0.18528166 -0.25933748 0.10028958 -0.19943415
000030 2a ad 19 3e c4 fe 7b 3e b6 57 a4 bd 4e 23 38 be
       0.15007463 0.24608904 -0.08024542 -0.17982218
000040 4e b3 7c be 88 ba 66 3e f4 22 68 bd 40 e9 42 bc
       -0.24677774 0.22532094 -0.05667396 -0.011896431
000050 ab fd 82 be 5e 26 3f 3e 0e 98 8e 3e 4e 21 38 3e
       -0.25584158 0.1866698 0.27850384 0.17981455
000060 5a cd 5a be 80 fd dc 3c e8 39 be 3d cf 5a 5a be
       -0.21367398 0.026976347 0.092883885 -0.21323703
000070 90 90 99 3d b1 8a 4c be 18 d2 37 be 09 dc 18 be
       0.07498276 -0.19974782 -0.17951238 -0.14927687
000080 60 22 29 3e ff 0d 44 be 7e f2 91 3e 24 4f ec 3d
       0.1651702 -0.19145964 0.2850532 0.115385324
000090 50 30 5b bd d6 c7 14 3e b0 bc 5c 3d 82 84 30 be
       -0.05351287 0.14529356 0.053890884 -0.17238048
0000a0 80 bc 77 be 54 52 86 3d 7e 40 dc bd ec 17 91 bd
       -0.24193001 0.065586716 -0.107544884 -0.07084641
0000b0 f2 ad 30 3e 6e 65 41 3e 9a fc bc bd a0 9a e2 3d
       0.17253855 0.18886349 -0.092278674 0.11064649
0000c0 79 55 88 be 9e 33 82 3e 58 3a 54 3d 6e ad da bd
       -0.2662771 0.25430006 0.051813453 -0.1067761
0000d0 3a a5 46 3e da 24 3b 3e 74 40 b3 3d 7a e9 55 3e
       0.19398966 0.18275777 0.08752528 0.20889845
0000e0 60 10 42 3d ee b5 3c 3e c8 47 5c 3d 0c 8d 6d 3e
       0.047378898 0.18428776 0.053779393 0.23198336
0000f0 84 ef 59 bd 04 d0 e8 3d dd af 6d be 05 84 8a be
       -0.053206936 0.11367801 -0.23211618 -0.27053848
000100 3a 82 93 be 3e c4 85 3e 9a cc 85 3e d4 70 9c 3d
       -0.28810292 0.26126283 0.2613266 0.07638708
000110 aa 99 3c be 34 ea dd 3d c2 7e 8a 3e 32 5f 5b be
       -0.18417993 0.10835686 0.27049834 -0.21423033
000120 ba 7d 85 3e f0 da 70 3e 8e 90 8c be e4 49 5c 3e
       0.26072484 0.23521018 -0.27454036 0.21512562
000130 54 21 ec 3d 30 9f 92 bc 40 5f a0 3d bc 00 4e be
       0.11529794 -0.017898172 0.078306675 -0.20117468
000140 86 16 d5 bd dc 99 62 3e 42 34 86 bd 62 b6 4b be
       -0.10404687 0.22129005 -0.06552936 -0.19893792
000150 24 4e b0 bd d4 6b 3f 3e 7e 9f 28 3e c0 b4 63 bc
       -0.08608654 0.18693477 0.16467091 -0.013898075
000160 5c 98 7d 3e 94 20 fe 3d c0 45 92 bd 44 a5 25 3e
       0.24765152 0.124085575 -0.0714221 0.16176325
000170 62 f2 05 be f5 81 0a be 34 a5 35 bd b8 7f 50 3e
       -0.13080743 -0.13526137 -0.044347003 0.20361221
000180 db 7a 15 be a0 f0 c9 bd 24 c6 e4 bd fc c3 8e bd
       -0.14597647 -0.09860349 -0.11170605 -0.06970975
000190 50 48 7c 3d 92 80 81 bd 90 cb dc bd 96 86 71 be
       0.0615924 -0.06323351 -0.10781014 -0.23586497
0001a0 0e 78 65 be f4 a3 d4 3d 18 12 38 be f0 94 f7 3c
       -0.22409078 0.10382834 -0.17975652 0.030222386
0001b0 3c f3 7e 3e dc 07 76 3e b0 f2 33 be 64 d6 8d 3e
       0.24897474 0.24026436 -0.17573047 0.2770263
0001c0 4c f5 c8 3d 4e 4e 3e 3e c0 64 e3 3b 5c ef bd bd
       0.09812412 0.18584558 0.0069395006 -0.0927417
0001d0 3a 11 8c 3e 38 d3 26 3e 80 a0 4b bb e8 3b 80 be
       0.27356893 0.16291511 -0.0031071007 -0.25045705
0001e0 4c 0b 03 3e 88 7a f1 3d 10 b9 84 be 4b 0c 8d be
       0.12797278 0.11790949 -0.2592244 -0.2754844
0001f0 d0 5e 4d 3d e8 41 84 3d 0b 96 12 be 64 39 4b 3e
       0.05013925 0.06457883 -0.1431505 0.19846112
000200 c0 63 2b bc 78 01 8d 3e d2 04 84 bd 84 31 b5 3d
       -0.010460794 0.27540183 -0.06446232 0.08847335
000210 e0 19 ba 3c a8 fa 4e 3d 28 7c 45 be 1e 5d 95 bd
       0.022717416 0.050532013 -0.19285643 -0.07293151
000220 52 c9 6a be fc c9 32 bd b6 87 a9 bd fc a3 43 bd
       -0.2292836 -0.04364966 -0.08277838 -0.04776381
000230 82 6d 87 3e 66 8f 6e be 24 b0 61 3e f4 12 8f 3d
       0.26450735 -0.2329689 0.22039849 0.06986037

wordAttention.linear_layers.0.bias f4 [12]
000000 b0 4a 98 bc be 82 07 3e d6 ef 84 3e 60 e1 3f be
       -0.018590301 0.13233468 0.2596423 -0.18738317
000010 00 41 7c 3c 67 c7 8a be de 08 87 3e 3c 9c 38 bd
       0.015396357 -0.27105257 0.26373953 -0.04507087
000020 30 69 c0 bc 9e 58 89 3e fc f3 88 3e 38 5d 61 3e
       -0.023487657 0.26825422 0.26748645 0.22008216

wordAttention.linear_layers.1.weight f4 [12, 12]
000000 68 7b 63 bd c0 4a 82 bb bc 60 7c 3e dc 2c bd bd
       -0.05553761 -0.003976196 0.24646276 -0.09237072
000010 4c b2 93 3e 60 17 bb 3d 3e 39 8f be 00 e8 79 bd
       0.28846967 0.09135318 -0.2797336 -0.061012268
000020 5a 85 00 be 74 d7 68 be 60 e6 8f 3d 9a 88 8c 3e
       -0.1255087 -0.22738439 0.070263624 0.2744797
000030 40 b1 ae 3d 00 e4 d3 bc 13 1e 61 be 28 49 82 3e
       0.085299015 -0.025865555 -0.21984129 0.2544644
000040 3e 1b 13 be 83 13 91 be ec de 5f 3e d0 c5 b0 3c
       -0.14365861 -0.283352 0.21862382 0.0215787
000050 9d 4e 1d be e8 40 89 be 20 da 6d 3c a4 4d 4c 3e
       -0.1536202 -0.26807332 0.014517337 0.19951493
000060 3f e6 4c be 60 25 bb bd 00 65 12 bc 70 78 12 3e
       -0.20009707 -0.09137988 -0.008935213 0.14303756
000070 6d fc 82 be a8 53 5c be ce 43 b2 bd 98 f2 11 3e
       -0.2558321 -0.21516287 -0.08704339 0.14252698
000080 de 04 8d be 9d 51 3e be 88 f0 54 3d 72 97 92 3e
       -0.27542776 -0.1858582 0.0519872 0.2863117
000090 50 e0 a8 3d 58 b7 6f be d4 04 5b bd 78 67 39 3e
       0.08245909 -0.23409784 -0.0534714 0.18105876
0000a0 54 e4 f0 3d 1a e4 29 3e 0b 33 26 be 9c 26 e1 bd
       0.117623 0.1659092 -0.16230409 -0.10993692
0000b0 5a 5e 24 be a7 b2 8b be be b6 f4 bd 90 ff 47 bd
       -0.16051617 -0.27284738 -0.11948918 -0.048827708
0000c0 1e e1 92 be 0c 9f 4e be 64 32 6a bd d4 ff 44 3e
       -0.28687376 -0.20177859 -0.057176962 0.19238216
0000d0 8c 8b fa 3d 24 ae 71 3e 90 b9 92 be 20 53 f8 3c
       0.12233648 0.23601586 -0.28657198 0.030313075
0000e0 00 80 a9 b8 b8 e9 39 3e 52 74 e7 bd 40 50 0e 3d
       -8.08239e-05 0.18155563 -0.11301483 0.0347445
0000f0 86 6e 91 3e 55 29 5f be 20 cc 0c 3c 4c f3 21 be
       0.28404635 -0.2179311 0.008593589 -0.15815467
000100 00 1e 76 3a 8e 2a 02 3e f0 bc 12 3d f1 63 14 be
       0.00093886256 0.12711546 0.035824716 -0.1449125
000110 00 c5 f5 ba e4 d5 ca 3d 2a 7b 39 be 60 1d 75 3c
       -0.0018750727 0.09904078 -0.1811339 0.014960617
000120 0b e6 78 be 8c f2 65 3e 0f 62 91 be c0 19 85 bc
       -0.24306504 0.22455806 -0.28395125 -0.01624763
000130 e2 3f 40 3e 48 47 d6 3d 98 3e 29 3d 0c b7 58 3e
       0.1877437 0.104628146 0.04131946 0.21163577
000140 7e 55 40 be a8 a0 cf 3d de 18 a2 bd 54 5d 10 be
       -0.18782613 0.101380646 -0.07914899 -0.14098102
000150 c0 67 0b 3c 00 6c 19 bb 9c cb 55 bd 56 aa e5 bd
       0.008508623 -0.002341032 -0.05219613 -0.112141296
000160 6a e5 04 3e 80 93 49 bb ba 72 3a 3e c0 3e 9a 3d
       0.1297814 -0.0030758083 0.18207827 0.075315
000170 2e e5 a4 bd 90 71 6f 3d f0 1f 1e be 2c 06 55 3e
       -0.08051525 0.05845791 -0.1544187 0.20803136
000180 3a 61 3c be 98 2c 23 3d ca cd 20 3e 1e e2 8f 3e
       -0.18396464 0.03983745 0.15703502 0.281022
000190 88 f0 76 bd b0 69 6d 3e 10 1c f3 3c b4 21 48 bd
       -0.060287982 0.23184848 0.029676467 -0.048860267
0001a0 3e a2 2b 3e d0 8e 6d be c0 2e 0d 3e 86 d1 61 be
       0.16761109 -0.2319901 0.13787365 -0.22052583
0001b0 b2 08 ce bd 52 8b 8f be dc a7 a6 3d 64 61 66 3e
       -0.10060252 -0.2803598 0.081374854 0.22498089
0001c0 88 67 01 3e 7a cd 4e be e8 8a 05 3e 16 6f e6 bd
       0.1263715 -0.2019557 0.1304127 -0.11251657
0001d0 58 67 12 3e 02 aa 3b be 60 66 01 3d dc 2d 11 be
       0.14297235 -0.18326572 0.031591773 -0.1417765
0001e0 95 f4 7f be 02 bf 2b 3e e9 1c 8e be e8 5a 24 3e
       -0.24995644 0.16772082 -0.27756432 0.16050303
0001f0 2f c9 85 be 46 ed 27 be 08 6a 96 bd 20 ad de bc
       -0.26130053 -0.16399106 -0.073444426 -0.027182162
000200 5c 5b df bd 80 09 87 bc 66 19 20 3e a4 af 8a be
       -0.10906097 -0.016484022 0.15634689 -0.27087128
000210 70 ab ab 3d 58 de d4 bd 60 0d 20 3e 7f d5 00 be
       0.083823085 -0.10393971 0.15630102 -0.12581442
000220 18 14 33 be 5b 88 8d be d0 4f bb 3d 03 c2 43 be
       -0.17488134 -0.27643093 0.091460824 -0.19116978
000230 40 a5 c4 bc 5a c7 3e 3e c0 4c 2b 3d c0 f4 0a be
       -0.024004579 0.18630734 0.04182124 -0.13569927

wordAttention.linear_layers.1.bias f4 [12]
000000 b6 4a 56 3e 9c a7 93 bd 50 8e f5 3d d4 29 8a 3d
       0.20926937 -0.07209703 0.119900346 0.06746259
000010 f0 26 5e be 7a 36 39 be 40 e2 62 3c cc ef 33 3e
       -0.21694541 -0.18087187 0.0138478875 0.17571944
000020 34 48 c7 bd 64 0e ab 3d 28 e0 0a be 93 9a 89 be
       -0.097305685 0.08352354 -0.13562071 -0.26875743

wordAttention.linear_layers.2.weight f4 [12, 12]
000000 96 84 04 be 50 84 38 bd a0 47 a8 bc 31 f3 58 be
       -0.12941203 -0.045048058 -0.020541966 -0.2118652
000010 d0 10 93 3c aa 6d 73 be a0 02 b9 3c 4a de d8 bd
       0.017952353 -0.23772302 0.02258426 -0.10589273
000020 fc 95 f7 bd 6a 31 07 be 48 7f 38 3e 5e 0e 8b be
       -0.12089154 -0.13202444 0.18017304 -0.271594
000030 94 97 e7 3d 9c 73 c1 bd 9a 6f 3c be 50 7d 0d be
       0.11308208 -0.09445879 -0.18401948 -0.13817334
000040 80 ad 16 bc 28 a9 a6 3d 2b 59 37 be 9a 1a 88 be
       -0.009196639 0.08137733 -0.17905109 -0.26582795
000050 c8 bd 1c be a8 dc 68 3e c5 9c 40 be e3 44 25 be
       -0.15306771 0.22740424 -0.18809803 -0.1613956
000060 24 c1 45 be 0c 94 25 bd f4 85 8a be 08 d3 0f bd
       -0.19311959 -0.04042439 -0.27055323 -0.035113364
000070 e0 e7 3e bd 7e 71 8e 3e 16 3e 8e 3e 48 ca 89 3e
       -0.046607852 0.27820963 0.27781743 0.2691214
000080 8c 79 6f 3e f4 7c 8d 3e d6 cf 85 3e de 4c 62 be
       0.2338621 0.27634394 0.2613513 -0.22099635
000090 5a c1 dd bd f7 9a 71 be b0 7b 8b 3e 12 0e 89 be
       -0.108278945 -0.2359427 0.27242804 -0.26768547
0000a0 5c 54 60 3e 96 ed d2 bd 8d 98 8f be c4 0a 3a 3e
       0.2190718 -0.10299222 -0.28046075 0.1816817
0000b0 74 ec 29 bd d1 be 1a be 2c 6c 38 bd 9c d8 78 be
       -0.041485265 -0.15111853 -0.045025036 -0.2430138
0000c0 50 e3 69 3d ca 0f 80 be de ae 51 be ac 29 ed 3d
       0.057101548 -0.25012046 -0.20476863 0.11580214
0000d0 80 41 a0 bd f0 09 fa bc 34 8a 9a bd 50 7c 46 3d
       -0.07824993 -0.030522317 -0.075458914 0.048458397
0000e0 94 38 1d 3e 56 bb 1e 3e 30 29 64 3d ab 55 06 be
       0.15353614 0.1550115 0.055703342 -0.13118617
0000f0 37 88 39 be 20 66 18 bd 60 d7 22 3c 68 e5 79 bd
       -0.18118368 -0.03720677 0.009939045 -0.061009794
000100 88 85 14 bd e4 d7 5c 3e 98 a0 74 3e 64 38 0a be
       -0.036260158 0.2156673 0.23889387 -0.13498074
000110 f7 57 71 be 80 9d 78 3b 73 19 18 be ac 7e 7f 3e
       -0.23568712 0.0037935674 -0.14853458 0.24950665
000120 a6 da 05 3e a6 a4 90 bd 38 af 4c be 9c db 3f 3e
       0.13071689 -0.07062654 -0.19988716 0.18736118
000130 98 a3 ba bd 00 d7 dc 3c 38 64 41 3e 16 00 8e 3e
       -0.09113234 0.026957989 0.18885887 0.2773444
000140 8b 46 62 be 26 bf 25 3e a8 e9 9f 3d b4 33 d2 3d
       -0.22097223 0.16186199 0.07808238 0.10263768
000150 02 30 15 be 13 b4 75 be cb 8e 0a be 18 8f 65 be
       -0.14569095 -0.23994474 -0.13531034 -0.22417867
000160 4e b8 46 3e 92 f9 7d be ea d8 36 be 60 b3 9b bd
       0.19406244 -0.24802235 -0.17856184 -0.076025724
000170 1c 38 f8 bd 66 b4 25 3e 40 84 1b 3c bc 57 c1 3d
       -0.12120077 0.16182098 0.00949198 0.09440562
000180 d0 9d eb 3d 38 3f 01 3e ea fe 06 3e 40 05 bb bc
       0.1150471 0.12621772 0.1318318 -0.022829652
000190 78 a4 44 3e 00 fe 62 3e ac 54 de 3d 74 88 19 be
       0.19203365 0.22167206 0.10855994 -0.14993459
0001a0 90 1b ce 3c 00 9e 2b bb 12 c4 49 be 60 bc f2 3d
       0.025159627 -0.0026186705 -0.19703701 0.11852336
0001b0 40 b2 e3 bb 49 9f 64 be c4 ea 68 3e 32 9d 21 3e
       -0.0069487393 -0.22326387 0.22745806 0.15782622
0001c0 d0 d4 d4 3d 28 09 60 3d d6 68 16 3e 42 1f 81 3e
       0.10392153 0.054696232 0.14688429 0.2521916
0001d0 86 df ca bd 09 88 8e be ee c4 8a be e8 11 32 3d
       -0.09905915 -0.27838162 -0.2710337 0.043474108
0001e0 90 fa ce 3c 00 e9 a3 bb e4 cb de 3d 80 ac e7 3d
       0.025265962 -0.005002141 0.10878733 0.11312199
0001f0 c2 ed 38 3e 50 8f f9 3d 44 da 77 3e e4 db 96 3d
       0.18059447 0.12185538 0.24204355 0.073661596
000200 8e 42 c8 bd 30 b5 ef bc c0 47 d2 3c 9c 9b 87 3d
       -0.09778319 -0.029261202 0.025668979 0.06621477
000210 d8 b0 ea 3d 30 b1 e2 bd 66 a8 86 3e d8 88 35 3d
       0.114595115 -0.11068952 0.26300353 0.044319957
000220 88 a5 05 3e a9 9b 65 be 5e c3 d2 bd f1 29 7f be
       0.13051426 -0.22422661 -0.102911696 -0.24918343
000230 b3 bb 7a be c2 38 45 be d0 ff f3 bd 60 63 30 3c
       -0.24485664 -0.19259933 -0.11914027 0.01076588

wordAttention.linear_layers.2.bias f4 [12]
000000 c8 27 ad bd ec a4 77 bd 14 f8 86 be ae 8c 88 bd
       -0.08454853 -0.060460016 -0.26361144 -0.066674575
000010 00 ff 88 3d b0 0c b3 bc f4 52 47 be 38 6c 56 be
       0.066892624 -0.021856636 -0.19465238 -0.2093972
000020 54 e3 70 3e ea a8 38 be dc db 5a 3e c4 01 9a 3d
       0.23524219 -0.18033186 0.21372932 0.07519868

wordAttention.final_linear.weight f4 [12, 12]
000000 00 ce 0d bc 9e 5c 89 3e 58 4c 88 3e 00 4d 52 bc
       -0.008655071 0.26828474 0.26620746 -0.012835741
000010 f0 dc 83 bc 80 f5 6b 3c 43 79 56 be a0 37 32 3c
       -0.016096562 0.0144017935 -0.20944695 0.01087752
000020 78 cf 59 3d 82 d8 74 be 30 c9 15 be 16 ea f1 bd
       0.053176373 -0.23910716 -0.14627528 -0.118122265
000030 4e b9 51 be 2d 8c 91 be 12 4c 48 3e c4 04 7a 3e
       -0.20480844 -0.28427258 0.19560269 0.2441588
000040 70 b3 8b 3c b0 21 af 3d 00 db 60 bc 9b e6 30 be
       0.017053336 0.08551347 -0.013724089 -0.17275469
000050 22 23 2b 3e f4 da c4 3d 3a af 7f be d4 74 85 3d
       0.16712621 0.096120745 -0.24969187 0.06516424
000060 34 05 43 bd 70 ef 89 3e 5f 5e 0f be 08 05 2e 3d
       -0.047612384 0.2694049 -0.14000843 0.042485267
000070 32 7d 8e be f2 a0 4e be 90 91 7e 3e 36 6c 88 be
       -0.2782989 -0.20178583 0.24860215 -0.26645058
000080 f2 0e 3d 3e fc c8 85 3e ae be 1c 3e 2e 48 c5 bd
       0.18462732 0.261299 0.15307114 -0.09632908
000090 08 e9 8a be b9 71 76 be 80 d1 1d 3e 08 d0 86 3e
       -0.27130914 -0.24066819 0.15411949 0.2633059
0000a0 04 d5 92 3e c4 41 27 3e 43 a0 66 be 2c a6 50 be
       0.28678143 0.16333681 -0.22522072 -0.2037589
0000b0 16 a4 88 be 1c db 5d be 6e d6 2e 3e ec f3 8b 3e
       -0.26687688 -0.21665615 0.17073986 0.27334535
0000c0 d0 69 90 be b6 16 8f 3e 4e eb 2f 3e 30 60 86 3e
       -0.2820573 0.27947015 0.17179605 0.2624526
0000d0 22 fc 3e 3e 96 bb 48 be d5 d5 91 be 3c 55 a7 3d
       0.18650869 -0.19602808 -0.28483453 0.08170554
0000e0 44 13 38 3e 89 d3 63 be 86 1a 4c be f4 b2 da bd
       0.17976099 -0.22248663 -0.19931993 -0.10678664
0000f0 98 17 14 3d 60 c0 07 3e ec c4 88 3d 23 a5 91 be
       0.036155313 0.13256979 0.06678185 -0.28446302
000100 10 c3 0a 3d c6 53 4d 3e b0 5f e9 bc 50 c0 0b bd
       0.033877432 0.20051488 -0.02848801 -0.03411895
000110 ee 1e 05 3e 80 f5 ca bc 50 e0 7c 3e 44 db e4 3d
       0.1300008 -0.024775267 0.24694943 0.11174634
000120 88 56 5e 3e 50 f0 6b 3e 40 bf 47 3c d3 f2 03 be
       0.21712697 0.2304089 0.012191594 -0.12885599
000130 c0 8e 2d 3c 54 98 13 3e 00 6f db bc 2e 51 8a be
       0.010593116 0.14413577 -0.026786327 -0.2701506
000140 dc 22 18 3e 12 a7 81 3e ec 8e 09 3e 20 94 5e 3e
       0.14857048 0.25322777 0.13433427 0.21736193
000150 00 b4 f2 bc 9a 47 63 be af 85 01 be fa 60 c5 bd
       -0.029626846 -0.22195283 -0.12648652 -0.096376374
000160 22 5d 2c 3e 5e 0d 82 be c0 50 4e 3c c2 89 8b bd
       0.16832402 -0.25400823 0.0125924945 -0.068133846
000170 00 85 e0 bb aa 87 23 3e c8 86 4e 3e c6 d4 90 3e
       -0.0068517923 0.1596972 0.20168602 0.28287333
000180 40 f0 83 bb 86 ff 56 be 08 9b 92 3d 48 5b 0b 3e
       -0.0040264428 -0.20995912 0.07158476 0.1360904
000190 fc 51 81 be 48 89 c2 3d 80 9b 7f 3e c2 db ed bd
       -0.25257862 0.094988406 0.24961662 -0.11614181
0001a0 10 30 c6 3d 02 d8 2c 3e 60 6f 3b bc a0 b6 b8 bd
       0.09677136 0.16879275 -0.011440128 -0.09019208
0001b0 78 d5 bf bd 54 61 72 3e 5e a4 2a be 68 f2 eb 3d
       -0.09366888 0.2366994 -0.16664264 0.11520845
0001c0 80 c1 c3 bc c2 62 1b be e9 0a 8c be c6 61 5d be
       -0.023895979 -0.15174392 -0.27352074 -0.21619329
0001d0 94 bf e2 3d 3e 55 34 3e 81 29 8f be 1c 9c 8a 3e
       0.11071697 0.17610642 -0.27961352 0.27072227
0001e0 b0 3a 87 3e 28 b4 ba bd 7a d3 3a 3e 9e 59 cb bd
       0.26411963 -0.09116393 0.18244734 -0.099292025
0001f0 8e 22 1b be e6 c2 70 be 6c e6 cf bd f0 e3 30 be
       -0.151499 -0.23511848 -0.10151371 -0.17274451
000200 8c 82 c6 3d 34 91 e3 3d 86 a8 26 be 2e 9b 18 3e
       0.096928686 0.1111168 -0.16275224 0.14902946
000210 7a 24 93 be 5c 18 64 3e 6a 4c 62 be 3a 2a 8d bd
       -0.28738767 0.22274917 -0.22099462 -0.0689282
000220 e8 a6 e0 3d c0 57 51 bd dc 76 6a 3e 91 e1 81 be
       0.10969335 -0.051109076 0.22896904 -0.25367406
000230 68 10 43 be 50 03 82 3c 8a 6a fe bd 76 a5 37 3e
       -0.19049227 0.01587072 -0.124226645 0.17934212

wordAttention.final_linear.bias f4 [12]
000000 d2 16 30 3e 0e fa bf bd c0 55 eb bc 60 39 74 bd
       0.17196205 -0.09373866 -0.028727412 -0.05962503
000010 32 b6 5f be 1e 82 07 3e da e4 36 3e ca 69 57 be
       -0.21846846 0.1323323 0.17860737 -0.21036449
000020 d8 25 25 be ec 6b 28 be 80 d1 b1 3b 37 fe 8a be
       -0.16127717 -0.16447419 0.0054265857 -0.27147076

wordLinear.weight f4 [12, 12]
000000 ce a3 8f be 9f 26 93 be ac 83 89 3e 02 6d 85 3e
       -0.2805466 -0.28740403 0.2685827 0.2605973
000010 f8 10 01 3e 40 31 c0 3d 9c d2 d3 bd f4 56 38 bd
       0.1260413 0.09384394 -0.10342905 -0.0450048
000020 68 40 53 3e 20 3f 94 bc a0 a2 32 3d 8a f9 06 be
       0.20630038 -0.018096507 0.043612123 -0.13181129
000030 0a 14 f4 bd 42 2d 8c bd 00 3a 39 bd ec 31 8c 3e
       -0.11917885 -0.0684457 -0.04522133 0.27381837
000040 82 3e 89 3e de 5e 7f be 89 ee 56 be ab 5d 4e be
       0.26805502 -0.24938533 -0.20989431 -0.20152919
000050 79 44 91 be 99 73 88 be 63 c7 8c be b0 87 59 be
       -0.28372553 -0.26650694 -0.2749587 -0.21243167
000060 49 a9 1f be 3a ae 81 3e e8 f1 82 be 8d 33 36 be
       -0.15591921 0.25328237 -0.25575185 -0.17793103
000070 44 d5 54 3e c0 fe c7 3c 88 f1 a0 3d 40 d2 6e 3c
       0.2078448 0.024413466 0.078585684 0.014576495
000080 ca 9a 9f bd 98 9b 76 3e a0 d5 43 3e 75 ae 7a be
       -0.077931955 0.24082792 0.1912446 -0.24480613
000090 fa 07 03 3e 40 c4 74 3d 14 89 fb 3d 48 1f cd 3d
       0.12796012 0.05975747 0.12282005 0.10015732
0000a0 4c d2 08 3e 26 88 76 be 80 cf 36 3e 40 cc 3d 3e
       0.13361472 -0.24075374 0.17852592 0.18534946
0000b0 2c db 49 3e 6c 99 5f bd b2 76 35 be 3c 81 81 3e
       0.19712514 -0.054589674 -0.1772106 0.2529391
0000c0 44 55 e1 bd c3 8f 01 be 74 09 6d 3e 4e c7 c0 bd
       -0.11002591 -0.12652497 0.23148137 -0.09413014
0000d0 9c 78 14 3e 28 81 26 be 28 6f 2c bd 62 0a 55 be
       0.14499134 -0.16260207 -0.042098194 -0.20804742
0000e0 6a 97 52 3e e4 69 36 3e 44 9e ae 3d 1c f3 40 be
       0.20565572 0.17813832 0.085262805 -0.18842739
0000f0 00 de d9 3b e0 ab 51 be 96 c1 01 3e 67 fa 89 be
       0.006648779 -0.20475721 0.12671503 -0.26948854
000100 c4 bb 69 3e a8 46 57 3e d4 b9 33 be 44 94 78 be
       0.22825533 0.21023047 -0.17551357 -0.24275309
000110 a8 01 17 bd 38 08 6c 3d fc 87 6f 3e 78 61 f3 3d
       -0.036866814 0.057625026 0.23391718 0.11883825
000120 a4 b9 e1 3d 00 00 f1 39 40 70 34 bd f4 e7 70 3e
       0.11021736 0.00045967102 -0.044052362 0.23525983
000130 00 4f 1f bb a0 ee b4 bc 7c 43 0a be 12 5a 8b 3e
       -0.0024308562 -0.022086442 -0.13502306 0.27217156
000140 d8 b8 66 3d fa 76 1e 3e 82 6b c0 bd e8 21 8a 3e
       0.056328624 0.15475073 -0.093955055 0.26978993
000150 8c ce 5c 3e 68 f0 60 3d a0 70 97 3c 45 7f 56 be
       0.21563166 0.05491677 0.018486321 -0.20946987
000160 8c 03 d2 3d e8 9b d3 3d e0 8b 96 bc ee b8 8e 3e
       0.10254583 0.10332471 -0.018377244 0.27875465
000170 00 ad 07 3d 80 9b d6 bb 74 58 34 be 7c ab 50 bd
       0.03312397 -0.0065492988 -0.17611867 -0.05094479
000180 80 54 ef 3d 1e 08 47 3e 6c b0 85 be 48 93 96 3d
       0.11686039 0.1943669 -0.26111162 0.073523104
000190 4a de 8e bd d0 d0 ad 3c 9e 91 07 be 9f 1a 83 be
       -0.06975992 0.021217734 -0.13239142 -0.25606248
0001a0 e9 85 1a be 60 24 64 3e b2 67 13 be b2 ee 84 3e
       -0.15090145 0.22279501 -0.14395025 0.2596336
0001b0 b0 ca 25 be c1 3b 79 be 5c 61 6e 3e 80 97 b3 bb
       -0.161906 -0.243392 0.23279327 -0.0054807067
0001c0 f0 b8 d0 3d e0 68 c6 3c 01 b0 4d be 90 80 a9 3d
       0.10191524 0.02421993 -0.20086671 0.082764745
0001d0 b0 f2 a7 3c 7c 52 72 3e 4c 86 a7 3d 50 94 16 3d
       0.020501465 0.23664278 0.08179912 0.036762536
0001e0 70 00 54 bd c9 71 80 be 52 fa 50 3e 5c 72 53 be
       -0.05175823 -0.2508681 0.2040799 -0.20649093
0001f0 d8 67 c7 3d 00 ee 08 bb 1e 7c 07 be 74 e7 f8 3d
       0.097366035 -0.0020893812 -0.1323094 0.12153521
000200 3d fb 57 be 00 8f 30 bc 18 f9 3f bd 69 22 36 be
       -0.21091934 -0.010776281 -0.046868414 -0.17786564
000210 d0 28 7a bd 27 dd 3e be 18 e8 37 3e 04 08 2e be
       -0.061074078 -0.1863905 0.1795963 -0.16995245
000220 2c 9d da 3d e0 95 4c 3c bc 13 0a 3e 7c c3 ab bd
       0.106745094 0.012486905 0.1348409 -0.08386895
000230 64 83 82 3e ee 4e 5c be 6b f6 6b be c8 05 bf bd
       0.25490868 -0.21514484 -0.2304322 -0.093272746

wordLinear.bias f4 [12]
000000 28 34 df bd 49 57 8b be b0 e2 ae bc 00 28 fd 3c
       -0.1089862 -0.2721503 -0.021348327 0.030902863
000010 16 66 36 3e 32 59 50 be 9c e4 c7 3d 52 2d cd bd
       0.1781238 -0.20346525 0.09760401 -0.1001841
000020 be a1 52 be 20 aa 56 3d 22 cf 89 bd 80 22 88 3e
       -0.20569512 0.052408338 -0.067289606 0.2658882

emb_entity.weight f4 [50, 2]
000000 9e b6 09 3d 19 7a 0a bf b3 7f 71 3f 55 db 69 bf
       0.033621423 -0.54092556 0.9433548 -0.913503
000010 91 61 a6 bf 74 52 5a bc 67 3e 64 3e cd 83 09 3f
       -1.2998525 -0.013325322 0.2228943 0.5371674
000020 54 1c 89 bf 07 06 36 bf 4e f4 83 3e a1 a7 14 3f
       -1.071177 -0.71102947 0.25772327 0.5806828
000030 6b 82 d0 bf 0c 7a 93 3f 25 b3 6f 3f 8c 0d e3 be
       -1.62898 1.1521621 0.9363273 -0.44346273
000040 b6 97 c6 be 96 1d b6 3f 50 3b 5e bf aa 53 1d c0
       -0.3878762 1.4227779 -0.86809254 -2.4582314
000050 2e ce 14 bf d7 3c 7c bf 84 19 25 3e 9c 16 4f 3f
       -0.58127105 -0.98530334 0.16123015 0.80893874
000060 cd 2f d3 3e af 83 66 bf fd ca 9d 3f c6 17 c0 bf
       0.41247407 -0.90044683 1.2327572 -1.5007255
000070 7b d6 d6 bd 32 5e 3b bf 15 c7 6a bd d4 57 8a 3c
       -0.10490128 -0.73190606 -0.057318766 0.016887583
000080 9c f3 79 3f 16 d5 7e 3f 08 ff 50 bf 5f a3 43 bf
       0.97637343 0.99543893 -0.81639147 -0.7642116
000090 e7 e6 83 3e c4 da db 3f 18 2a 70 3f a5 a7 06 bf
       0.25762102 1.7176137 0.9381423 -0.52599555
0000a0 0d c2 6e bf b3 1f d8 bf fa 8d 49 3c 7a b1 4a c0
       -0.9326485 -1.6884674 0.012301916 -3.1670823
0000b0 ca e3 96 bf 34 01 35 bf 2a 44 47 3f f4 b3 2b be
       -1.1788266 -0.7070496 0.77838385 -0.16767865
0000c0 af 40 17 3f 13 82 2f be 73 0d a2 3d 3b f5 62 bf
       0.59083074 -0.17139463 0.079127215 -0.8865544
0000d0 32 a7 21 3e f2 8a dc 3e 33 c4 fe 3e 05 34 33 3e
       0.15786436 0.43074757 0.49759063 0.17500313
0000e0 32 47 7e 3f 26 7f 41 40 05 aa 6d bf ff ae 5f 3f
       0.99327385 3.0233855 -0.92837554 0.873764
0000f0 fd 35 dd bc 52 e3 b8 3f e1 c3 f2 3e d8 0c c2 3e
       -0.027003283 1.4444373 0.4741507 0.37900424
000100 cb 31 4a bf 72 9a d5 3e 05 9b 34 bf c2 69 5c bf
       -0.7898223 0.41719395 -0.7054904 -0.86098874
000110 47 c4 9e bf 05 61 c4 3d 6e ae 02 c0 a5 09 b8 be
       -1.2403649 0.095888175 -2.0418963 -0.35944858
000120 35 f9 d9 be b7 21 b2 3e 26 da 13 c0 a6 0d 47 bf
       -0.42572942 0.34791347 -2.3101897 -0.777552
000130 77 de a0 be e8 26 53 bf 63 66 9e bc bd 13 22 3f
       -0.31419727 -0.8248124 -0.019335931 0.6331137
000140 d5 ed dc be 5b d2 9c bf 2a 31 50 3e f8 db 16 bf
       -0.431502 -1.2251695 0.20331255 -0.58929396
000150 6b 00 d4 3e cd d8 9e 3c 4b c0 a1 3e 5f f0 33 bf
       0.4140657 0.019390488 0.3159202 -0.7028865
000160 ba 64 e9 bb a4 30 9a be b4 e2 fe 3d 97 50 de 3e
       -0.0071226032 -0.30115235 0.12445584 0.4342086
000170 8d e3 9d be 24 34 05 3f d1 3e dd bd 67 3a 2b bf
       -0.3083767 0.52032685 -0.10802997 -0.6688599
000180 83 71 04 c0 0f 84 47 3f f1 ae 57 be ab 5e d7 bc
       -2.0694282 0.7793588 -0.21062829 -0.026290258

line_entity.weight f4 [2, 2]
000000 3d 71 0a be 26 9d 05 bf ed bf f1 3d fa 3a c2 be
       -0.1351976 -0.52192914 0.11804185 -0.3793562

line_entity.bias f4 [2]
000000 cb a1 8d 3e 89 d4 ad be
       0.276625 -0.33951214

line_bifreq.weight f4 [2, 2]
000000 cb 1b 8e 3e 32 93 0a be 53 82 1c bf 2d 93 ea bd
       0.2775558 -0.13532713 -0.6113636 -0.11453853

line_bifreq.bias f4 [2]
000000 44 e0 6b be cf ca 85 bd
       -0.2303477 -0.06532823

line_trifreq.weight f4 [2, 3]
000000 9f 04 15 3f 51 ab 85 3e a8 da f0 3e 9f 31 0a bf
       0.58210176 0.26107267 0.4704182 -0.53981966
000010 83 a5 df 3d 28 57 5a 3e
       0.10920241 0.2132231

line_trifreq.bias f4 [2]
000000 e1 0d 38 be 9f 96 4f be
       -0.17974044 -0.20272301

phaseAttention.linear_layers.0.weight f4 [18, 18]
000000 c4 09 22 bd 69 d6 6e 3e de 25 a9 3d b2 37 c4 3d
       -0.039560094 0.23323978 0.08259176 0.095809355
000010 76 6e 0a be d0 eb 19 bd a2 2d 9f 3d 34 86 4a 3d
       -0.135187 -0.037578404 0.07772376 0.049444392
000020 b2 b7 8c 3d 30 f7 1a bc a2 8c 07 be d2 78 b4 3d
       0.068709746 -0.009458348 -0.13237241 0.08812107
000030 87 04 55 3e 00 ce f9 bb 96 6b f4 bd 65 ff 38 3e
       0.20802508 -0.007623434 -0.11934583 0.18066175
000040 04 74 5b bd 78 78 5c be 4a b5 15 be 55 da 55 3e
       -0.053577438 -0.2153033 -0.14619938 0.20884068
000050 90 ed 2c bd a0 13 14 bc 63 03 23 3e 39 16 25 3e
       -0.042218745 -0.009037882 0.1591926 0.16121759
000060 16 a9 97 3d 7b 6b 61 3e 50 74 71 bc 36 60 4d be
       0.074052975 0.22013657 -0.014737204 -0.20056233
000070 9c aa 5b 3d 89 10 3f 3e b0 2a 56 bc 26 8d 47 be
       0.053629503 0.18658651 -0.013071701 -0.19487438
000080 e6 e4 40 be 34 68 25 bd 00 40 9d ba 40 00 7d bb
       -0.18837318 -0.04038258 -0.0011997223 -0.0038604885
000090 f9 00 54 be da 90 e5 bd 98 91 73 bd e6 e1 cd 3d
       -0.20703496 -0.11209269 -0.05946502 0.10052852
0000a0 18 3f a9 bc 38 82 c9 3c 9b e9 1c 3e 73 c7 2c 3e
       -0.020659968 0.024598226 0.15323488 0.16872959
0000b0 73 01 44 3e f8 f7 f1 3c 3b 4b 3b 3e f2 fe 4f be
       0.19141178 0.029537186 0.18290417 -0.20312098
0000c0 ad 1a 53 3e 89 1a 21 3e 2e 22 84 bd b8 30 95 bc
       0.20615645 0.15732779 -0.06451832 -0.018211707
0000d0 21 f4 1e 3e 2e b2 ff 3d 44 98 d8 bd 16 4c 8a bd
       0.15522815 0.12485157 -0.10575917 -0.067527935
0000e0 60 b6 a2 bc ae 4d b9 3d f4 7c 4e 3d 0c 42 9a bd
       -0.019862354 0.09048019 0.050412133 -0.07532129
0000f0 92 d4 bc 3d 89 11 5e be 0e 4f 16 be fa f9 9a bd
       0.09220232 -0.21686377 -0.14678594 -0.075672105
000100 00 73 0e be d1 7f 41 3e 52 80 04 be 09 4f 67 3e
       -0.13911057 0.18896414 -0.12939575 0.22588743
000110 85 94 6b be 1a c4 ab 3d a8 68 fc bc 11 eb 2f 3e
       -0.23005874 0.08387013 -0.030811623 0.17179514
000120 06 d0 c0 3d 74 1d da bd 04 ee 6c 3d cc 44 1a 3d
       0.09414677 -0.10650149 0.057844177 0.037663266
000130 c6 e9 e0 3d cf 9e 11 3e f2 a8 dc 3d fb 16 2a be
       0.10982089 0.14220737 0.10774411 -0.16610329
000140 57 7b 6c 3e 94 ce 8c bd 4d f0 39 be a6 b0 c2 3d
       0.23093925 -0.06875339 -0.18158074 0.09506349
000150 45 1b 24 3e b1 0c 65 3e 5f 37 15 3e 46 ad 9c bd
       0.16026028 0.22368123 0.14571904 -0.07650237
000160 5b 0f 06 3e 44 f5 4e bd de a7 ba 3d 10 37 0e bc
       0.13091795 -0.050526872 0.091140494 -0.00868012
000170 c8 da c4 bc e9 fe 15 3e 45 ef 10 3e e2 a9 2e be
       -0.024030104 0.14648022 0.14153774 -0.17056993
000180 c2 2d cf 3d ac 83 18 3d e8 15 3f be b8 bf 82 bc
       0.101161495 0.037234947 -0.186607 -0.01596056
000190 3a 2c d7 3d 7d c8 5b be 23 a4 6f be b7 99 5a 3e
       0.105064824 -0.21463199 -0.23402457 0.213477
0001a0 8c b8 46 3d f8 05 d3 bc e1 30 14 3e 45 22 41 be
       0.04851584 -0.025759682 0.14471771 -0.18860729
0001b0 15 7f 6c 3e 88 f5 8b 3c a9 ed 68 be 00 97 a5 bb
       0.23095353 0.017084852 -0.2274691 -0.005053401
0001c0 8b ed 47 3e 42 4a da 3d 74 0a c6 bd 28 2c a8 3c
       0.19524209 0.10658695 -0.096699625 0.020528868
0001d0 ee ed 9d 3d 7e 94 c1 3d 07 b7 29 be 0a 4a 93 bd
       0.07711397 0.09452151 -0.16573726 -0.07191856
0001e0 60 2d ec 3b e0 30 85 bb 90 f3 0c 3c 62 4f 3d be
       0.0072075576 -0.0040646642 0.008602992 -0.18487313
0001f0 7c 9f 11 3d 2f 2d e6 bd 6e 03 a0 3d e9 53 3b 3e
       0.035552487 -0.11239087 0.07813154 0.18293728
000200 cc b3 19 be 36 09 80 3d c8 4c 0e be 0a b3 05 be
       -0.15009993 0.06251757 -0.13896477 -0.13056579
000210 cc 81 72 bd 49 2a 23 be 15 52 26 3e 7f b2 39 3e
       -0.059205815 -0.159341 0.1624225 0.18134497
000220 84 62 46 3d a9 6c 48 3e ec 7e 31 bd 38 8e af bd
       0.048433796 0.195727 -0.043333933 -0.08572048
000230 30 47 41 bc 1f c2 67 3e 2e bb 5d be 49 7f 62 3e
       -0.011796758 0.22632645 -0.21653435 0.22118868
000240 b2 ad 38 be 16 9b da bd 0d d5 5d 3e 70 b0 66 bd
       -0.1803501 -0.106741115 0.21663304 -0.056320608
000250 b8 b1 04 be de 73 e0 3d 55 9b 4f be cd ba 0a 3e
       -0.1295842 0.109596 -0.20274098 0.13547821
000260 1c 88 4f 3d 35 62 15 3e 65 c0 37 3e 19 5a 22 3e
       0.050666913 0.14588244 0.17944486 0.15854682
000270 c4 32 1d bd ae 19 51 be a8 37 98 bc 4c 8b 6f 3d
       -0.038378492 -0.20419952 -0.018581226 0.058482453
000280 ef bb 1b 3e c0 3c 6e be 4a cf aa bd 3b 72 25 3e
       0.1520841 -0.23265362 -0.083403185 0.16156857
000290 de 5b 83 3d aa 61 a8 3d d5 56 26 be 6b 4d 1f be
       0.06414007 0.08221753 -0.16244061 -0.15556876
0002a0 d1 9f 53 3e 75 4c 40 be ed 31 3f 3e fc fb 02 3d
       0.20666434 -0.18779166 0.18671389 0.031978592
0002b0 4b 30 61 3e 71 a6 17 3e bd 2c 69 be fb 7b 6f 3e
       0.21991079 0.14809586 -0.22770973 0.23387139
0002c0 1f 1e 15 3e 4e 6d 49 be 67 91 46 3e 3b 1c 4a 3e
       0.14562272 -0.19670603 0.19391404 0.19737332
0002d0 f8 4f f3 3c 23 50 2d 3e bc 63 d2 bd e0 3a db bd
       0.029701218 0.16925101 -0.10272929 -0.10704589
0002e0 66 4c bd 3d 00 66 27 bc 98 8a 54 bd 14 f2 22 be
       0.092430875 -0.01021719 -0.051889986 -0.15912658
0002f0 a0 75 8c bc 6c a8 70 bd f0 41 34 bd 13 a6 56 3e
       -0.017145932 -0.05875437 -0.044008195 0.2096179
000300 42 39 03 be c8 d4 00 bd 4c c3 5f be 26 42 d6 3d
       -0.12814811 -0.031452924 -0.21851844 0.104618356
000310 b4 19 f1 bd 8d 6a 6c 3e e8 b5 27 bd d4 59 1d 3d
       -0.117724806 0.23087521 -0.040944964 0.038415745
000320 2b 28 32 be 5a 10 1b be a6 89 b0 3d ca a6 43 be
       -0.17398135 -0.15142956 0.08620004 -0.19106594
000330 44 a4 5c be c3 ba 4c 3e 8d ac 35 3e 98 7c d5 3c
       -0.21547037 0.19993119 0.17741604 0.026060387
000340 30 60 6a 3c fd c2 46 3e ef 2b 2c 3e 60 df c0 bc
       0.014305159 0.1941032 0.16813634 -0.023544014
000350 b0 7d 29 bd 6f b6 09 3e 2d 22 3f be bb 3a 69 3e
       -0.04137963 0.13448499 -0.18665381 0.2277631
000360 44 8f 64 3d 43 2f 10 be e7 d9 31 3e 84 ad 46 bd
       0.05580069 -0.14080529 0.1736828 -0.04850532
000370 cc dc 5f be 90 38 89 bd 01 e3 04 be 65 b0 4a be
       -0.21861571 -0.067002416 -0.1297722 -0.19793852
000380 19 93 1f be 88 67 90 bd 40 a4 24 3c e0 8d 50 bc
       -0.15583457 -0.07050997 0.010048926 -0.012729138
000390 14 17 58 bd b4 61 19 be 00 a5 fa bb f2 37 91 3d
       -0.052756384 -0.14978677 -0.007649064 0.07090749
0003a0 52 d7 87 bd 13 11 65 be e6 d8 f8 bd 10 2b 82 bc
       -0.06632866 -0.22369795 -0.12150745 -0.015889674
0003b0 b5 63 45 3e fe f3 2b be 82 0d 6c be 2c b8 70 bd
       0.19276316 -0.16792294 -0.23052028 -0.05876939
0003c0 d7 e2 5c 3e 73 32 3f 3e 84 9a 10 3d a6 1f 8e bd
       0.21570908 0.18671589 0.035303608 -0.0693963
0003d0 80 02 55 be ea 64 f5 bd 68 bd 95 3c 8a 80 c1 bd
       -0.20801735 -0.119821385 0.018278793 -0.09448345
0003e0 5f 00 0c 3e 8d 00 6f 3e 61 d8 25 be e0 e5 ef bb
       0.13672017 0.23340054 -0.16195823 -0.0073211044
0003f0 b5 15 06 3e f5 2b 68 3e 77 55 0d 3e cd 69 6b 3e
       0.13094218 0.22673018 0.13802134 0.22989579

phaseAttention.linear_layers.0.bias f4 [18]
000000 10 f8 2c bc dd a4 16 3e 49 01 06 3e be b0 bb bd
       -0.01055719 0.14711328 0.13086428 -0.0916457
000010 a1 80 3d 3e 05 67 4f be 38 09 a9 3c 20 15 d6 bd
       0.185061 -0.20254143 0.020634279 -0.10453248
000020 be 2a f3 3d d5 78 1f 3e a8 56 f4 3c 7b df 5d be
       0.11873387 0.15573438 0.029826477 -0.21667282
000030 f9 d3 6c 3e d8 eb 19 be fd 15 23 3e 64 1c e7 bd
       0.23127736 -0.15031374 0.15926357 -0.11284712
000040 31 de 12 3e 2b 18 5c be
       0.14342572 -0.21493594

phaseAttention.linear_layers.1.weight f4 [18, 18]
000000 3e 12 0c be 50 00 0b 3c 52 bb dd 3d 30 78 32 3c
       -0.13678834 0.008483961 0.10826744 0.010892913
000010 94 61 9e bd 53 7a 5e 3e 74 f9 72 3d 9c 25 62 bd
       -0.07733455 0.2172635 0.05931993 -0.05521165
000020 8e c5 8d 3d 1c 5c 0c bd 16 60 34 be ec b2 dd bd
       0.06922446 -0.03426753 -0.17614779 -0.10825142
000030 12 97 aa 3d e9 a3 ea bd 6a 7f 9c 3d 7b 10 45 3e
       0.083295956 -0.11457045 0.0764149 0.19244568
000040 03 26 33 be ce b1 8b bd db f3 32 3e 32 ab 30 be
       -0.17494969 -0.06821023 0.17475836 -0.17252806
000050 4d 01 67 3e d8 6c 70 bd 95 3e 2f 3e 90 16 ed bc
       0.2255909 -0.05869755 0.17113717 -0.028941423
000060 85 c5 45 3e 1b 89 67 3e 31 83 30 3e ba 2e b3 3d
       0.19313629 0.22610895 0.17237546 0.08749147
000070 ec f9 3a 3d 3a e0 da 3d 73 4a f2 bd 7a 03 94 3d
       0.0456485 0.10687299 -0.11830606 0.072272256
000080 9e da d3 3d 44 42 6c 3d cf ca 39 3e 36 55 fd 3d
       0.10344432 0.057680383 0.18143772 0.12369768
000090 32 31 c7 bd 64 c6 4c be b5 8b 10 3e ce d3 e4 bd
       -0.0972618 -0.19997555 0.14115794 -0.11173211
0000a0 f5 2b 03 3e b4 fa 61 bd 3a 24 0d be 16 b4 52 be
       0.12809737 -0.05517073 -0.1378335 -0.2057651
0000b0 dc e2 5f 3d bf 87 5d 3e 37 00 2b be 51 e4 13 3e
       0.05465971 0.21633814 -0.166993 0.14442565
0000c0 e8 3f d6 bc 32 31 51 be 02 b2 c5 bd 10 77 6c bd
       -0.02615352 -0.20428923 -0.09653093 -0.057730734
0000d0 32 10 6f be 07 72 34 3e 14 d1 2e be d3 d0 58 3e
       -0.23346022 0.17621623 -0.17071944 0.2117341
0000e0 28 6f 96 3c 4c 99 2d 3d 17 c4 27 3e 04 e4 79 3d
       0.01836355 0.042382523 0.16383396 0.06100847
0000f0 e8 e8 ae 3c e0 32 1d be 40 a1 4d 3b e0 98 0a bc
       0.021351293 -0.15351439 0.003137663 -0.0084593
000100 0d 60 56 3e 9c f5 13 3d 09 39 32 be a4 58 f4 bd
       0.20935078 0.036122903 -0.1740457 -0.11930969
000110 b1 a4 21 be 7d 07 22 be d4 d7 6a 3d 18 de 71 bd
       -0.15785481 -0.15823169 0.057334736 -0.059049696
000120 52 c1 de bd f1 3b 3b be 69 23 14 be 64 5c 63 3d
       -0.10876717 -0.18284585 -0.14466633 0.055508032
000130 ef 83 1a 3e 6f cb 57 3e dd bd 31 3e eb a6 ff bd
       0.15089391 0.21073698 0.17357583 -0.12483009
000140 04 55 6f 3d ff e0 12 3e dc 44 7d 3d 68 3c d9 bc
       0.058430687 0.14343642 0.061833248 -0.026518062
000150 e0 ee bf bd d0 06 70 bd e2 00 0f be c6 1c d1 bd
       -0.09371734 -0.058600247 -0.1396518 -0.10210566
000160 a7 65 69 be 45 f0 ed bd a6 29 33 be 1c 96 39 be
       -0.22792684 -0.116180934 -0.17496356 -0.18123668
000170 b7 f4 41 be 69 0b 0e 3e 92 c4 fd 3d 88 2c 57 be
       -0.18941008 0.1387154 0.123910084 -0.21013081
000180 8e 6e a4 bd 88 fd ce bc 04 02 37 3d c2 85 c9 3d
       -0.08028899 -0.025267377 0.044679657 0.098399654
000190 8e 45 07 be d7 d6 64 3e f6 f7 f7 3d db ed 57 3e
       -0.13210127 0.2234758 0.12107842 0.21086828
0001a0 8e d7 cd 3d 18 76 08 be df e3 07 3e a5 9e 1d 3e
       0.100508794 -0.13326299 0.1327052 0.1539255
0001b0 2a c4 3b be 36 06 df 3d 7c d7 0c 3d bc d5 60 3d
       -0.1833655 0.108898565 0.03438519 0.054891333
0001c0 41 ab 13 be 42 68 b6 3d ef d2 14 3e b2 67 21 be
       -0.14420797 0.08906604 0.1453359 -0.15762213
0001d0 7f ef 08 be b2 61 c0 bd 11 53 1c 3e 30 0e 6d be
       -0.1337261 -0.09393634 0.15266062 -0.23149943
0001e0 94 b9 f0 bd 9d 7c 0d 3e 9e 14 97 bd db 9b 25 3e
       -0.11754146 0.13817067 -0.07376979 0.16172735
0001f0 d7 23 6b 3e 88 1b c1 bd af 4f 0c be d8 78 a7 3c
       0.2296289 -0.09429079 -0.13702272 0.020443365
000200 11 98 3d be 88 9c ce bc 61 2a f9 bd 3b 5d eb bd
       -0.1851504 -0.025221124 -0.12166286 -0.11492392
000210 db 48 e9 bd 20 7e d7 bc 2c bf 6b be 07 6a 23 3e
       -0.11390849 -0.026305258 -0.23022145 0.15958415
000220 38 82 f1 bd 8b 32 2e be 46 99 f2 3d 73 1f 14 be
       -0.117924154 -0.17011468 0.11845641 -0.14465122
000230 37 10 33 be e6 93 d0 3d 69 b6 4b 3e 7e 8e 4c be
       -0.17486654 0.101844594 0.19893803 -0.19976231
000240 62 e9 01 be e2 d8 5c be af 93 3d 3e 62 87 67 be
       -0.12686685 -0.21567109 0.18513368 -0.22610238
000250 dd 59 1e 3e 3d b3 4e 3e d1 c8 3e 3e a0 f8 2e bc
       0.15463968 0.20185561 0.18631293 -0.010679394
000260 5d 07 3a be f0 35 62 be 00 1b 60 bc c6 c8 00 be
       -0.18166871 -0.22090888 -0.013678312 -0.12576589
000270 8c 31 01 be 91 5f 62 3e 07 d0 62 3e 0d 6d 41 3e
       -0.12616557 0.22106768 0.22149669 0.18889256
000280 5e 27 1c be c4 1e 5e bd 53 0c 49 3e b7 d8 47 3e
       -0.15249392 -0.05422856 0.19633608 0.19516264
000290 f2 5e 90 3d 18 98 9e bd eb ce 22 3e 25 2d 41 3e
       0.070493594 -0.07743853 0.15899245 0.18864878
0002a0 8e 9c 34 be d7 3b 3c be 75 1d 52 be a8 13 b1 3c
       -0.17637846 -0.18382202 -0.2051905 0.021615818
0002b0 09 03 1e 3e 69 02 55 3e 07 f8 5e 3e 4e e1 94 bd
       0.15430845 0.208017 0.21774302 -0.07269536
0002c0 88 22 12 be a7 72 5d be 7a 56 de 3d 0f e5 36 3e
       -0.14270985 -0.21625768 0.10856338 0.17860816
0002d0 57 fe 28 be 7b 87 4b be 21 12 36 be f1 6b 48 3e
       -0.16503273 -0.198759 -0.17780353 0.19572426
0002e0 03 5b 4e be 76 90 5a be d0 3f 4e bd 04 a7 0e be
       -0.20151906 -0.2134417 -0.050353825 -0.13930899
0002f0 b0 09 41 bc 3b 9d 27 3e cb e6 56 be 52 7a aa 3d
       -0.011782095 0.16368572 -0.20986478 0.08324112
000300 20 9a ea bb 52 54 50 be 07 1f 4f be 66 71 ca 3d
       -0.0071594864 -0.20344666 -0.2022668 0.0988491
000310 28 ab 39 bd a8 2c c2 3c 54 93 ed bd b9 e5 0f 3e
       -0.045329243 0.023702934 -0.11600366 0.14052476
000320 1e 22 b8 3d dd f1 14 be 74 06 9f bd 4b 05 06 3e
       0.08990882 -0.14545389 -0.07764903 0.13087957
000330 10 d4 42 be ca d2 ce 3d 17 df 58 3e c0 90 fa bb
       -0.19026208 0.100987986 0.21178852 -0.00764665
000340 fa 24 12 be 9d 70 4b 3e da 04 d5 3d 21 db 57 be
       -0.14271918 0.19867177 0.10401316 -0.21079685
000350 02 db fa 3d 04 cd 3c bd 3f a4 32 3e f3 fd 50 3e
       0.12248804 -0.046093956 0.17445467 0.20409374
000360 1c 7e 03 3d 13 15 29 3e 35 65 15 3e 5e fd bd 3d
       0.03210269 0.16511945 0.14589389 0.092768416
000370 04 31 1c be 9c 77 b0 bd cf c1 03 3e f2 df 8a bd
       -0.15253073 -0.08616564 0.12866901 -0.067809954
000380 c8 89 ba 3c 2c 7a 61 be da 33 99 3d 00 72 3f be
       0.022770777 -0.22019261 0.07480593 -0.18695831
000390 87 34 5b 3e 3d 1c 0a 3e 2d 0a 17 3e 6d 5c 6d 3e
       0.21406756 0.13487335 0.14749976 0.23179789
0003a0 7c 07 20 3d 29 f5 70 3e 4a 54 40 be 5e 68 b4 3d
       0.039069638 0.23531021 -0.18782154 0.08808969
0003b0 ca d0 a0 3d 2e 1b ad 3d 36 5f 92 bd 55 4f 60 be
       0.07852323 0.0845245 -0.07147066 -0.21905263
0003c0 63 8f 26 be 82 8d b4 3d 21 bd 03 3e 99 5b 6f be
       -0.16265635 0.08816053 0.12865116 -0.23374785
0003d0 a0 9f 33 be 91 41 47 3e d2 7b ed 3d 62 c2 82 3d
       -0.17541361 0.19458605 0.115958825 0.06384732
0003e0 c9 f3 5d be 0e f3 ec 3d 00 5f 34 3a 85 89 42 3e
       -0.21675028 0.115697965 0.0006880611 0.18997772
0003f0 69 18 0c 3e 7c bd 52 bd 14 2e 20 be 4d 37 29 3e
       0.13681187 -0.051450238 -0.15642577 0.16525002

phaseAttention.linear_layers.1.bias f4 [18]
000000 60 07 56 bd 3f 3d 4e 3e 3d b5 25 3e 7f fb 1b 3e
       -0.052253127 0.20140551 0.16182418 0.15232657
000010 4a b8 1b be ee 8f 94 bd 18 0c 82 3c db 6d 5a be
       -0.1520702 -0.07254015 0.015874907 -0.21330969
000020 b3 90 f7 bd 71 1d 2b 3e 84 ee 53 be 24 d3 60 bd
       -0.12088146 0.1671045 -0.20696455 -0.05488886
000030 fa 16 6d be c0 5c a6 bd 9d 45 66 3e a8 92 e0 3c
       -0.23153296 -0.081231594 0.22487493 0.027413681
000040 e8 7e 93 bc 63 86 58 3e
       -0.01800485 0.21145014
