best_model.pt (torch, 61666 bytes, 75 tensors)

emb_pers.weight f4 [5, 2]
-0.033061523 -2.5406883 -0.40406787 0.47893524 1.8516816 -0.6452749 0.25971633 -0.12646359
1.5726377 0.5539159
00000000: 856b 07bd a39a 22c0 fce1 cebe 0037 f53e
00000010: e703 ed3f bc30 25bf 8af9 843e ac7f 01be
00000020: 314c c93f 6fcd 0d3f

emb_pos.weight f4 [50, 2]
-0.15952161 -1.7955382 1.2326272 1.1023558 0.7377791 -0.6370981 1.2637842 0.59988123
-0.12706596 -0.7186696 0.046780933 -0.58636594 0.63840765 -2.2648113 1.3379556 -1.7234588
-1.0767641 -0.92597514 1.2178991 -1.7440729 0.08912983 -0.7643053 1.0962892 0.08017256
-0.8060375 -0.5968649 0.40786564 0.7557 1.2115989 1.1470826 1.1243716 -0.259564
-0.31824824 0.65097183 0.2918763 -1.557772 2.0431042 1.3755393 -1.1395725 0.76103985
0.6506133 0.25991827 2.5069335 -0.5490575 -0.05688748 -0.24919328 2.746176 -0.439036
1.0508667 1.1521959 1.8404 -0.458387 0.3742248 -1.1343387 -0.05897883 -1.1077341
1.3957509 -0.5654174 -0.24844547 -0.53081876 0.10732177 1.3209853 0.93855184 -0.26398045
-1.0269061 -0.7565348 0.57242155 -1.0379928 -1.7675778 0.80597407 -0.7377991 0.30501506
0.62630355 -0.35801017 0.7738618 0.32258582 0.036622956 1.0979956 -1.615983 -1.1199751
0.021536617 -0.7355433 -0.18709539 -0.71609217 0.22389698 -0.39690027 1.0422473 1.7495546
-0.77296996 -0.21199964 1.5495249 -0.17922747 1.034305 0.13155288 -0.37759063 0.07579502
-1.0823824 0.7910222 0.90903074 -0.8195798
00000000: a259 23be 32d4 e5bf bac6 9d3f ff19 8d3f
00000010: 17df 3c3f dc18 23bf aec3 a13f d191 193f
00000020: 941d 02be bbfa 37bf 5d9d 3f3d 141c 16bf
00000030: af6e 233f abf2 10c0 2142 ab3f 4c9a dcbf
00000040: 68d3 89bf b50c 6dbf 1ee4 9b3f c83d dfbf
00000050: b389 b63d 83a9 43bf 3453 8c3f 8331 a43d
00000060: 7958 4ebf 23cc 18bf c4d3 d03e 8e75 413f
00000070: ac15 9b3f 9ad3 923f 69eb 8f3f 93e5 84be
00000080: 6ff1 a2be 17a6 263f cf70 953e 1365 c7bf
00000090: 38c2 0240 ac11 b03f 83dd 91bf 82d3 423f
000000a0: 988e 263f 0214 853e 9971 2040 088f 0cbf
000000b0: d902 69bd 862c 7fbe 59c1 2f40 54c9 e0be
000000c0: cd82 863f 287b 933f 3a92 eb3f b3b1 eabe
000000d0: 659a bf3e 0332 91bf c993 71bd 3bca 8dbf
000000e0: f7a7 b23f 32bf 10bf 7d68 7ebe bde3 07bf
000000f0: 84cb db3d 0c16 a93f ef44 703f 7228 87be
00000100: a971 83bf 44ac 41bf 388a 123f f3dc 84bf
00000110: fd3f e2bf 5154 4e3f 67e0 3cbf ef2a 9c3e
00000120: 6e55 203f 1c4d b7be cf1b 463f f829 a53e
00000130: f401 163d 1f8b 8c3f 88d8 cebf 585b 8fbf
00000140: 8f6d b03c 914c 3cbf ef95 3fbe d151 37bf
00000150: 4045 653e 8336 cbbe 5c68 853f 68f1 df3f
00000160: 5ce1 45bf 6f16 59be d556 c63f 6887 37be
00000170: 1b64 843f ccb5 063e 8f53 c1be 6b3a 9b3d
00000180: 828b 8abf 6e80 4a3f 3db6 683f fbcf 51bf

emb_punc.weight f4 [5, 2]
-0.13003589 -0.49129653 0.14118212 -0.8402907 -0.008449483 0.1428062 -0.53856397 0.31015578
-0.15654169 0.015134411
00000000: 2128 05be 388b fbbe 0c92 103e 4b1d 57bf
00000010: b36f 0abc ca3b 123e 54df 09bf bdcc 9e3e
00000020: 774c 20be 52f6 773c

emb_wsen.weight f4 [6, 2]
0.3178815 0.7800543 -0.031772427 -0.32814398 0.654676 -1.3656524 0.14591153 0.16124459
1.650141 1.0374722 -1.377287 0.7178574
00000000: 5dc1 a23e a3b1 473f ce23 02bd 7d02 a8be
00000010: d998 273f b3cd aebf d569 153e 4d1d 253e
00000020: d237 d33f e4cb 843f f14a b0bf 81c5 373f

line_pers.weight f4 [2, 2]
-0.22047138 -0.33382687 0.16454075 -0.5471228
00000000: 40c3 61be 5beb aabe 5f7d 283e 3d10 0cbf

line_pers.bias f4 [2]
-0.14722857 -0.4135911
00000000: 16c3 16be 36c2 d3be

line_pos.weight f4 [2, 2]
0.232798 0.30966097 -0.58388126 -0.40058494
00000000: 9962 6e3e e28b 9e3e 3e79 15bf 7819 cdbe

line_pos.bias f4 [2]
-0.4275361 0.44044438
00000000: 03e6 dabe ed81 e13e

line_punc.weight f4 [2, 2]
0.36246812 -0.4148848 0.03555987 0.43179062
00000000: 6c95 b93e c86b d4be 3aa7 113d a913 dd3e

line_punc.bias f4 [2]
-0.1149562 0.39174694
00000000: 286e ebbd 0e93 c83e

line_wsen.weight f4 [2, 2]
0.09395148 -0.1901513 -0.19106723 0.06742829
00000000: a269 c03d 06b7 42be 21a7 43be d817 8a3d

line_wsen.bias f4 [2]
-0.67676824 0.49589562
00000000: af40 2dbf 08e6 fd3e

line_freq.weight f4 [2, 1]
0.49504045 -0.46636885
00000000: f175 fd3e e6c7 eebe

line_freq.bias f4 [2]
-0.89638555 0.5391394
00000000: 8679 65bf 0a05 0a3f

line_wtox.weight f4 [2, 1]
0.44987592 0.9450326
00000000: 2356 e63e a8ed 713f

line_wtox.bias f4 [2]
0.60413575 -0.5359731
00000000: a4a8 1a3f 8835 09bf

wordAttention.linear_layers.0.weight f4 [12, 12]
0.18694407 -0.29187307 -0.23661129 -0.23636486 0.010316392 0.13704377 -0.27005348 0.10470368
0.15603739 -0.23052453 0.1276469 -0.23073545 0.17610233 0.29465958 -0.07395834 -0.0974292
-0.3132163 0.26346806 -0.015823528 -0.051589895 -0.21590354 0.14743707 0.24046506 0.22179663
-0.2638177 -0.010958107 0.066873536 -0.23198937 0.106737405 -0.14442042 -0.22206557 -0.106796846
0.12332382 -0.15013045 0.32718474 0.07102634 -0.0075168405 0.2160869 0.078580186 -0.10065527
-0.3307193 0.090662204 -0.044366922 -0.13204522 0.2343831 0.12803654 -0.15101345 0.17734413
-0.24423894 0.29835135 0.057953347 -0.03603295 0.13319415 0.21988896 0.124506034 0.17304175
0.083567835 0.14872357 0.019417897 0.26977214 -0.05797279 0.08133191 -0.2140593 -0.3882497
-0.24018523 0.20766342 0.23758611 0.099265 -0.2059513 0.12886143 0.29095674 -0.23904447
0.20164332 0.18374193 -0.36083028 0.3630629 0.15508312 0.06508286 0.021891844 -0.14612791
-0.15892996 0.27515468 -0.0108745545 -0.26077363 -0.013328789 0.23764399 0.26874503 -0.19784571
0.20826605 0.030022638 -0.012456175 0.102127686 -0.068483956 -0.19870338 -0.10621657 0.26240188
-0.17384905 -0.09660467 -0.16646947 0.08323411 0.043842547 0.011523621 -0.115264274 -0.22723636
-0.23511581 0.1169511 -0.1680276 0.025858643 0.29634124 0.31992072 -0.15661937 0.37999243
0.0019251556 0.21401039 0.077274084 -0.16082858 0.3418109 0.096439734 -0.067226015 -0.17451741
0.106841765 0.11453717 -0.3041476 -0.15042861 0.037988793 0.13096881 -0.15370819 0.20914757
-0.02151491 0.28681418 -0.052969906 0.076597616 -0.011298307 -0.011028956 -0.20742519 -0.1573755
-0.15054703 -0.07692334 -0.1364498 0.004255345 0.21266483 -0.18241651 0.26992276 0.013693979
00000000: 446e 3f3e 6370 95be 3b4a 72be a109 72be
00000010: 1606 293c 3455 0c3e 7344 8abe e26e d63d
00000020: 44c8 1f3e 9f0e 6cbe deb5 023e ea45 6cbe
00000030: 2b54 343e 9fdd 963e 7877 97bd f688 c7bd
00000040: e35d a0be 49e5 863e 58a0 81bc ed4f 53bd
00000050: d115 5dbe bef9 163e 793c 763e a81e 633e
00000060: 1d13 87be a289 33bc fef4 883d 9f8e 6dbe
00000070: 2499 da3d f2e2 13be 2865 63be 4eb8 dabd
00000080: 3391 fc3d ccbb 19be c284 a73e 4276 913d
00000090: d44f f6bb e245 5d3e a6ee a03d 5a24 cebd
000000a0: 0a54 a9be 1bad b93d 17ba 35bd dd36 07be
000000b0: 2002 703e 031c 033e 45a3 1abe b399 353e
000000c0: c619 7abe 82c1 983e 7d60 6d3d 4997 13bd
000000d0: 0c64 083e 922a 613e 05fd fe3d db31 313e
000000e0: 9d25 ab3d fe4a 183e 4812 9f3c 931f 8a3e
000000f0: e074 6dbd 5891 a63d 5c32 5bbe aac8 c6be
00000100: 1ef3 75be b8a5 543e c649 733e 734b cb3d
00000110: e6e4 52be 40f4 033e 48f8 943e 13c8 74be
00000120: 967b 4e3e d826 3c3e bfbe b8be 61e3 b93e
00000130: 1cce 1e3e 2a4a 853d 8656 b33c 8ea2 15be
00000140: 89be 22be 13e1 8c3e 302b 32bc 1f84 85be
00000150: fe60 5abc f258 733e f398 893e 1198 4abe
00000160: b243 553e 09f2 f53c fc14 4cbc 5228 d13d
00000170: 5141 8cbd e678 4bbe 1388 d9bd 8a59 863e
00000180: 7c05 32be abd8 c5bd f976 2abe a576 aa3d
00000190: 3e94 333d 92cd 3c3c ad0f ecbd a6b0 68be
000001a0: 33c2 70be 0f84 ef3d 6d0f 2cbe 81d5 d33c
000001b0: 0aba 973e a6cc a33e d460 20be 5e8e c23e
000001c0: 8155 fc3a 8a25 5b3e e041 9e3d 3fb0 24be
000001d0: d701 af3e 3282 c53d cbad 89bd b1b4 32be
000001e0: dbcf da3d 7792 ea3d 3cb9 9bbe f509 1abe
000001f0: 239a 1b3d b01c 063e ae65 1dbe c82a 563e
00000200: 0940 b0bc 4fd9 923e f9f6 58bd 36df 9c3d
00000210: 891c 39bc cbb2 34bc 4567 54be 0b27 21be
00000220: 0029 1abe fc89 9dbd 7fb9 0bbe 6c70 8b3b
00000230: cfc4 593e 65cb 3abe 5133 8a3e b65c 603c

wordAttention.linear_layers.0.bias f4 [12]
0.010450535 0.092304215 0.30230075 -0.24942786 -0.020704636 -0.24843326 0.32044774 -0.10563728
-0.01481235 0.19919308 0.27862763 0.27257565
00000000: b938 2b3c fe09 bd3d 2ac7 9a3e 046a 7fbe
00000010: c59c a9bc 4a65 7ebe ba11 a43e 5c58 d8bd
00000020: 80af 72bc 45f9 4b3e 48a8 8e3e 098f 8b3e

wordAttention.linear_layers.1.weight f4 [12, 12]
-0.19368675 0.22578034 0.29562476 -0.12500396 0.13637406 0.2438822 -0.39174983 0.021112174
-0.24659 -0.1066194 -0.033426974 0.16187368 0.0072581293 0.121661775 -0.17192405 0.22298421
-0.24171935 -0.18144543 0.12589459 0.07415119 -0.23897478 -0.18318485 -0.019962184 0.15984978
-0.30706438 0.03327767 0.096137546 0.04626765 -0.38386118 -0.08598299 -0.1719304 0.20590506
-0.43608898 -0.02619216 0.040469285 0.27419257 0.23703168 -0.48222205 -0.09574651 0.20446692
0.27548584 0.0047608986 -0.03833756 -0.19786803 -0.054203037 -0.37906057 0.0028802122 0.07991558
-0.13441186 -0.44315803 -0.08798156 0.20610489 0.27873904 0.08571545 -0.18819113 -0.03019044
0.108520456 0.07365636 0.01579184 0.18225738 0.24094488 -0.16829337 0.03626621 -0.15757567
-0.1259002 0.25160214 -0.0121969525 -0.11833451 -0.11989718 0.21572751 -0.13315447 0.06514769
-0.4062808 0.47380924 -0.2556132 -0.023658436 0.033172302 0.26099104 -0.084958866 0.28604415
-0.26689982 0.18029761 -0.22013542 -0.29051894 0.20075041 -0.25586587 -0.089679405 -0.09680935
0.28606653 -0.15335079 0.29520258 0.012376315 0.025853164 -0.046943337 -0.03913461 0.33940193
-0.3456591 0.26480252 0.2152105 0.241527 -0.20911174 0.3793701 -0.078293644 0.011140005
0.055876542 -0.12112644 0.040617112 -0.33201984 -0.019203737 -0.3389032 -0.027605755 0.31996313
0.26598695 -0.34152406 0.17272918 -0.15374184 0.31530255 -0.3547177 -0.01235987 -0.19174911
-0.39267722 0.39462772 -0.22269687 0.123990715 -0.41039348 -0.010910947 -0.19849133 0.05662469
-0.2272573 0.10150527 0.058425434 -0.3752162 -0.058744576 0.10345927 0.16798986 -0.11135717
-0.3217771 -0.13647413 0.0030489068 -0.13343816 -0.11375237 0.27562135 -0.042923987 -0.23594627
00000000: d255 46be f632 673e 215c 973e 0a01 00be
00000010: a4a5 0b3e 41bc 793e 6f93 c8be 70f3 ac3c
00000020: 1782 7cbe 465b dabd b9ea 08bd 37c2 253e
00000030: 9ad5 ed3b cf29 f93d dc0c 30be f955 643e
00000040: 4785 77be d5cc 39be 83ea 003e 94dc 973d
00000050: ceb5 74be cf94 3bbe bc87 a3bc a9af 233e
00000060: 8b37 9dbe 2b4e 083d c3e3 c43d 2683 3d3d
00000070: 7489 c4be da17 b0bd 860e 30be c7d8 523e
00000080: 0e47 dfbe f190 d6bc 1fc3 253d f862 8c3e
00000090: 6fb8 723e cfe5 f6be bf16 c4bd c75f 513e
000000a0: 7b0c 8d3e 5001 9c3b d807 1dbd eb9d 4abe
000000b0: 0104 5ebd 3a14 c2be f1c1 3c3b c8aa a33d
000000c0: 43a3 09be 9ce5 e2be ad2f b4bd 290d 533e
000000d0: e2b6 8e3e 958b af3d 2db5 40be f151 f7bc
000000e0: f93f de3d 25d9 963d e45d 813c aea1 3a3e
000000f0: 41ba 763e 1955 2cbe e18b 143d 845b 21be
00000100: fbeb 00be ffd1 803e bad5 47bc 5d59 f2bd
00000110: a78c f5bd ace7 5c3e a559 08be 276c 853d
00000120: 0904 d0be 2097 f23e bcdf 82be 56cf c1bc
00000130: aedf 073d 9ea0 853e eafe adbd 6174 923e
00000140: 18a7 88be f09f 383e 2e6b 61be e6be 94be
00000150: 8491 4d3e da00 83be d6a9 b7bd fb43 c6bd
00000160: 5077 923e fd07 1dbe cb24 973e 07c6 4a3c
00000170: 04ca d33c a847 40bd 9d4b 20bd 17c6 ad3e
00000180: 3bfa b0be 3294 873e 2460 5c3e db52 773e
00000190: 6321 56be cc3c c23e 6b58 a0bd 9184 363c
000001a0: cdde 643d 2411 f8bd 215e 263d 81fe a9be
000001b0: 2851 9dbc b884 adbe 7725 e2bc 35d2 a33e
000001c0: 712f 883e 3edc aebe ebdf 303e 806e 1dbe
000001d0: 566f a13e 8f9d b5be 0d81 4abc e159 44be
000001e0: fd0c c9be a50c ca3e a60a 64be d8ee fd3d
000001f0: 181f d2be d4c3 32bc 5041 4bbe 4aef 673d
00000200: 23b6 68be ffe1 cf3d 824f 6f3d 561c c0be
00000210: 279e 70bd 74e2 d33d 8905 2c3e 3a0f e4bd
00000220: f8bf a4be e0bf 0bbe 2bd0 473b 03a4 08be
00000230: 01f7 e8bd 3e1e 8d3e 10d1 2fbd e69b 71be

wordAttention.linear_layers.1.bias f4 [12]
0.20927054 -0.07209687 0.11990009 0.067465 -0.21694484 -0.18087226 0.013849272 0.17571941
-0.09730551 0.08352349 -0.1356201 -0.26875812
00000000: 044b 563e 86a7 93bd 2e8e f53d 172b 8a3d
00000010: ca26 5ebe 9436 39be 0fe8 623c caef 333e
00000020: 1c48 c7bd 5d0e ab3d ffdf 0abe aa9a 89be

wordAttention.linear_layers.2.weight f4 [12, 12]
-0.13047983 -0.0681527 0.0007282458 -0.2966954 0.053190924 -0.2887873 0.009231578 -0.093443245
-0.13330683 -0.11940075 0.18863274 -0.2902343 0.12778206 -0.052403275 -0.19637965 -0.0435195
-0.0653683 0.13303924 -0.1487619 -0.2950648 -0.124148734 0.19821116 -0.21155435 -0.123305194
-0.19243903 -0.06543188 -0.24454458 -0.13555574 -0.008081211 0.21688741 0.2639551 0.28191197
0.22125025 0.2891735 0.2690393 -0.24180958 -0.11072747 -0.26690635 0.29983842 -0.3821558
0.26619267 -0.1757058 -0.2987157 0.19887133 -0.058553703 -0.13374287 -0.033236783 -0.26803142
0.06372738 -0.26077563 -0.1760491 0.020308549 -0.054580133 -0.09626631 -0.07675907 0.049428545
0.15218063 0.15675153 0.05413435 -0.13435245 -0.17399262 -0.05268828 0.038981117 -0.15363769
-0.00915581 0.15838075 0.23300076 -0.13002242 -0.24037825 0.0086677205 -0.14814231 0.23738243
0.14196359 -0.05284119 -0.20690005 0.24287587 -0.11957756 0.06400145 0.2008189 0.26524764
-0.2078669 0.14816079 0.06485193 0.108599454 -0.14305113 -0.2634552 -0.10366505 -0.33636737
0.23318022 -0.31946227 -0.18980159 -0.06566968 -0.13134587 0.17240635 0.01475615 0.07647408
0.10752357 0.14110298 0.10062901 0.07283883 0.16417564 0.28151405 0.11312791 -0.15383562
0.028842967 -0.0066219145 -0.19662546 0.12896888 -0.016404398 -0.20573352 0.1885144 0.2782548
0.0705486 0.13356411 0.15181339 0.24817339 -0.09525276 -0.28258127 -0.26971427 0.055601876
0.031714648 -0.010898858 0.12290792 0.074821666 0.19136399 0.10044098 0.24074718 0.07465013
-0.09831546 -0.028718632 0.023564206 0.058882717 0.11870725 -0.09799579 0.26457608 0.053386476
0.11620619 -0.22225933 -0.09260348 -0.25890386 -0.235705 -0.20149994 -0.12598564 0.02760459
00000000: 819c 05be a593 8bbd c0e7 3e3a 76e8 97be
00000010: bade 593d eedb 93be 0b40 173c 2c5f bfbd
00000020: 9681 08be 6188 f4bd f128 413e 9799 94be
00000030: 4dd9 023e d1a4 56bd bf17 49be 8141 32bd
00000040: d1df 85bd 703b 083e 0a55 18be bc12 97be
00000050: b141 febd def7 4a3e b4a1 58be 6f87 fcbd
00000060: bd0e 45be 2601 86bd e569 7abe 20cf 0abe
00000070: 0e67 04bc bc17 5e3e 1f25 873e c456 903e
00000080: 6d8f 623e 8d0e 943e 85bf 893e ee9c 77be
00000090: 15c5 e2bd f3a7 88be 6c84 993e eda9 c3be
000000a0: 684a 883e 39ec 33be 44f1 98be eda4 4b3e
000000b0: 02d6 6fbd e4f3 08be 4b23 08bd 6a3b 89be
000000c0: 8083 823d 6284 85be 3746 34be 1d5e a63c
000000d0: 6b8f 5fbd 4527 c5bd dc33 9dbd 9675 4a3d
000000e0: 3dd5 1b3e 7983 203e fbbb 5d3d b093 09be
000000f0: 1f2b 32be aacf 57bd aaaa 1f3d 3353 1dbe
00000100: 4002 16bc 902e 223e c097 6e3e 9924 05be
00000110: b725 76be 0e03 0e3c 9eb2 17be 6114 733e
00000120: e75e 113e 0170 58bd 9bdd 53be 74b4 783e
00000130: 14e5 f4bd 3113 833d 78a3 4d3e 8ace 873e
00000140: 10db 54be 76b7 173e 17d1 843d 6469 de3d
00000150: ff7b 12be 9ae3 86be 574e d4bd 5838 acbe
00000160: ccc6 6e3e 8f90 a3be 595b 42be d37d 86bd
00000170: 887f 06be 4a8b 303e c7c3 713c 719e 9c3d
00000180: 5135 dc3d 4d7d 103e 9516 ce3d 862c 953d
00000190: a91d 283e 9c22 903e 9baf e73d 1687 1dbe
000001a0: 1648 ec3c a5fc d8bb 2f58 49be 6b10 043e
000001b0: 8462 86bc cfab 52be eb09 413e 6a77 8e3e
000001c0: c97b 903d 08c5 083e f874 1b3e 2a21 7e3e
000001d0: e113 c3bd 7eae 90be fd17 8abe cbbe 633d
000001e0: 38e7 013d 2091 32bc 26b7 fb3d 1a3c 993d
000001f0: ecf4 433e 00b4 cd3d 6e86 763e 2be2 983d
00000200: 9e59 c9bd 5643 ebbc b909 c13c 012f 713d
00000210: c91c f33d 04b2 c8bd 8476 873e c7ab 5a3d
00000220: 83fd ed3d f397 63be e5a6 bdbd 0c8f 84be
00000230: a75c 71be 0056 4ebe 6102 01be 0523 e23c

wordAttention.linear_layers.2.bias f4 [12]
-0.07285133 -0.08863961 -0.2517326 -0.050558187 0.06707501 -0.017738594 -0.20632428 -0.20021977
0.23236172 -0.18314695 0.21413751 0.06564345
00000000: 1433 95bd af88 b5bd 18e3 80be 1a16 4fbd
00000010: 9f5e 893d 8750 91bc ac46 53be 6906 4dbe
00000020: 3bf0 6d3e e08a 3bbe dd46 5b3e 1370 863d

wordAttention.final_linear.weight f4 [12, 12]
-0.063813455 0.22915263 0.27180833 -0.070349276 -0.032569513 0.034481168 -0.19375545 -0.042400915
0.07432412 -0.2146887 -0.16745679 -0.20759787 -0.18522754 -0.27857158 0.18146978 0.26570702
0.014128124 0.089876585 -0.03212877 -0.15148458 0.16717024 0.09342572 -0.24984184 0.081252165
-0.06868862 0.2632216 -0.11062937 0.020186847 -0.26284435 -0.21640423 0.28713515 -0.28681922
0.17548496 0.25440115 0.16230927 -0.15037508 -0.2236021 -0.19778515 0.13656038 0.31513947
0.29067922 0.15031408 -0.25344306 -0.15983696 -0.27602345 -0.22814511 0.17931834 0.3624302
-0.2702189 0.26777598 0.19915529 0.27010855 0.20881273 -0.2049926 -0.25996166 0.097296864
0.15835565 -0.24624759 -0.17625959 -0.11838883 -0.017512804 0.08017318 0.0844222 -0.3429301
0.026985083 0.21879561 0.00040736442 -0.083286986 0.14199266 -0.010764799 0.23618136 0.015435637
0.2472303 0.26468894 -0.013796012 -0.09410786 0.0043515917 0.1392873 -0.058785778 -0.2438186
0.15095627 0.25456783 0.13067427 0.2725791 -0.06791009 -0.25750777 -0.10484271 -0.13875073
0.16892652 -0.24665461 0.042210694 -0.103865355 -0.0028251912 0.16634735 0.19800976 0.21419138
-0.036873672 -0.22762895 0.07433355 0.102273814 -0.2603438 0.10139786 0.2578108 -0.15043555
0.108724646 0.18324198 -0.023455596 -0.13487808 -0.1313782 0.19600461 -0.15340547 0.073038965
-0.027229551 -0.13937643 -0.25522548 -0.25082427 0.11849141 0.18533297 -0.28679544 0.21014732
0.22616109 -0.13405137 0.20275003 -0.1421269 -0.14911993 -0.22663863 -0.07423611 -0.20661782
0.10007651 0.11550193 -0.1652181 0.0800462 -0.3437455 0.1706393 -0.20793043 -0.12976712
0.0996625 -0.030238762 0.2547951 -0.30572036 -0.1753485 0.03308487 -0.1382277 0.0861591
00000000: a1b0 82bd fda6 6a3e 762a 8b3e 4813 90bd
00000010: 9c67 05bd 203c 0d3d d467 46be 95ac 2dbd
00000020: 3f37 983d 5bd7 5bbe cb79 2bbe 8994 54be
00000030: 4aac 3dbe efa0 8ebe 37d3 393e c00a 883e
00000040: a679 673c 3711 b83d 7599 03bd c61e 1bbe
00000050: ad2e 2b3e fc55 bf3d 8ad6 7fbe 8967 a63d
00000060: 9fac 8cbd fbc4 863e a791 e2bd e35e a53c
00000070: 8993 86be 1299 5dbe 6103 933e f8d9 92be
00000080: 54b2 333e de40 823e 6734 263e edfb 19be
00000090: f3f7 64be 3188 4abe 7cd6 0b3e f659 a13e
000000a0: e8d3 943e efeb 193e 4ac3 81be 4dac 23be
000000b0: f252 8dbe df9e 69be 3a9f 373e 7490 b93e
000000c0: 225a 8abe ef19 893e 5def 4b3e ab4b 8a3e
000000d0: 01d3 553e 95e9 51be b219 85be 9443 c73d
000000e0: fc27 223e 5428 7cbe 657d 34be d875 f2bd
000000f0: 0377 8fbc d631 a43d 8ce5 ac3d 8994 afbe
00000100: d20f dd3c f50b 603e 8793 d539 5e92 aabd
00000110: 8666 113e d75e 30bc 87d9 713e c1e5 7c3c
00000120: f129 7d3e 4f85 873e ab08 62bc 9fbb c0bd
00000130: cc97 8e3b 54a1 0e3e 5bc9 70bd 95ab 79be
00000140: 4894 1a3e b756 823e 7acf 053e 7d8f 8b3e
00000150: 7214 8bbd 0fd8 83be c6b7 d6bd ac14 0ebe
00000160: 13fb 2c3e 0793 7cbe 1fe5 2c3d 5cb7 d4bd
00000170: d826 39bb f656 2a3e 12c3 4a3e fc54 5b3e
00000180: d908 17bd 9017 69be 303c 983d ef74 d13d
00000190: c84b 85be aea9 cf3d c7ff 833e c70b 1abe
000001a0: 07ab de3d c9a3 3b3e f325 c0bc 7b1d 0abe
000001b0: 0288 06be 6fb5 483e 5316 1dbe 7495 953d
000001c0: 8210 dfbc b2b8 0ebe eaac 82be 0a6c 80be
000001d0: a0ab f23d edc7 3d3e dad6 92be dc30 573e
000001e0: c696 673e c344 09be b49d 4f3e b789 11be
000001f0: e5b2 18be f513 68be 1a09 98bd 9f93 53be
00000200: eaf4 cc3d 478c ec3d ef2e 29be 43ef a33d
00000210: 69ff afbe 12bc 2e3e b7eb 54be ace1 04be
00000220: da1b cc3d 48b7 f7bc 8174 823e 6187 9cbe
00000230: 8f8e 33be 0084 073d 908b 0dbe 2f74 b03d

wordAttention.final_linear.bias f4 [12]
0.14793469 -0.09092073 -0.021303628 -0.047352124 -0.19862375 0.11651675 0.17932482 -0.2174681
-0.17521086 -0.1746372 -0.00018883235 -0.29016757
00000000: 317c 173e a634 babd f284 aebc 4df4 41bd
00000010: 0664 4bbe 55a0 ee3d eda0 373e f5af 5ebe
00000020: 7a6a 33be 18d4 32be 4c01 46b9 d890 94be

wordLinear.weight f4 [12, 12]
-0.2540487 -0.31860122 0.22822158 0.29764026 0.06989004 0.124473765 -0.11225078 -0.07940436
0.17610665 -0.060424015 0.005217641 -0.16556413 -0.09711193 -0.09085279 -0.0771987 0.30315888
0.34310582 -0.34086198 -0.22472419 -0.23237577 -0.31002218 -0.27932835 -0.2987839 -0.24975842
-0.14263113 0.2433074 -0.28906268 -0.15856965 0.2036931 -0.018798085 0.0513768 -0.0029730452
-0.09877004 0.22722861 0.17608872 -0.26638857 0.16502976 0.021956537 0.09269234 0.1377101
0.047175765 -0.22032468 0.2750906 0.14959025 0.16046995 -0.09939294 -0.2136532 0.2205951
-0.0898121 -0.1463186 0.2034382 -0.07014356 0.2078785 -0.23770669 -0.064691395 -0.23486249
0.1826137 0.16721293 0.064175926 -0.22037457 -0.010709401 -0.18766443 0.15058967 -0.29158163
0.14940028 0.30062005 -0.16121809 -0.21795851 -0.016358472 0.06359416 0.25130513 0.14971907
0.0870409 0.022791531 -0.01419483 0.2087699 -0.06944901 0.06038839 -0.12418583 0.30137205
0.0822469 0.1674144 -0.071159676 0.30427486 0.19974457 0.07048778 0.03996282 -0.22825678
0.045129117 0.17195809 0.0011789189 0.30023068 0.051089756 -0.00029790052 -0.16027579 -0.024628546
0.110487305 0.20132811 -0.2634465 0.070585474 -0.0818145 0.017646393 -0.14203255 -0.25173804
-0.14757927 0.22425573 -0.13983482 0.26380026 -0.18533516 -0.22046497 0.26364204 -0.034200177
0.015193479 0.12382394 -0.18916132 0.1138397 0.04756479 0.24827234 0.10506094 0.07427592
-0.03453227 -0.2695314 0.17570253 -0.18384843 0.121549934 -0.05408004 -0.1431281 0.096128635
-0.23146679 -0.028129602 -0.06856077 -0.20621455 -0.08381883 -0.16857655 0.21261464 -0.19285062
0.13600156 0.0011734501 0.114243865 -0.06337613 0.28308722 -0.19113539 -0.21024126 -0.07167589
00000000: ac12 82be b31f a3be ebb2 693e 4e64 983e
00000010: 8222 8f3d 1aec fe3d bde3 e5bd c19e a2bd
00000020: 4d55 343e 2c7f 77bd bff8 aa3b a589 29be
00000030: 9fe2 c6bd 0711 babd 5a1a 9ebd a437 9b3e
00000040: 91ab af3e 7685 aebe 191e 66be eaf3 6dbe
00000050: 3abb 9ebe 2004 8fbe 34fa 98be acc0 7fbe
00000060: e50d 12be 9325 793e 0600 94be 1560 22be
00000070: ed94 503e 71fe 99bc 7b70 523d 6cd7 42bb
00000080: f247 cabd 9eae 683e 9a50 343e 1564 88be
00000090: 90fd 283e 32de b33c 7bd5 bd3d e003 0d3e
000000a0: 603b 413d cb9c 61be add8 8c3e 302e 193e
000000b0: 3c52 243e 878e cbbd e8c7 5abe afe3 613e
000000c0: 68ef b7bd 8bd4 15be 1a52 503e 6da7 8fbd
000000d0: 1ade 543e 6269 73be ec7c 84bd cb7f 70be
000000e0: 16ff 3a3e de39 2b3e ab6e 833d dfa9 61be
000000f0: 7c76 2fbc 1b2b 40be 2e34 1a3e 304a 95be
00000100: 63fc 183e dfea 993e 5b16 25be 8430 5fbe
00000110: 3402 86bc a83d 823d 11ab 803e f54f 193e
00000120: 8042 b23d 4eb5 ba3c 6f91 68bc c7c7 553e
00000130: 483b 8ebd d159 773d 2455 febd 704d 9a3e
00000140: 1071 a83d ae6e 2b3e 2abc 91bd eac9 9b3e
00000150: d789 4c3e e65b 903d 0eb0 233d 25bc 69be
00000160: 4fd9 383d c815 303e f485 9a3a d6b7 993e
00000170: 7e43 513d 882f 9cb9 561f 24be cec1 c9bc
00000180: 2b47 e23d f528 4e3e 76e2 86be 1e8f 903d
00000190: 5c8e a7bd 2b8f 903c fb70 11be cfe3 80be
000001a0: 051f 17be 4ba3 653e dc30 0fbe d410 873e
000001b0: 80c8 3dbe 92c1 61be 17fc 863e 7c15 0cbd
000001c0: 12ee 783c 6897 fd3d 81b3 41be ca24 e93d
000001d0: 4cd3 423d 1b3b 7e3e 312a d73d f91d 983d
000001e0: b671 0dbd 0500 8abe 5deb 333e c342 3cbe
000001f0: 2cef f83d 0883 5dbd 2c90 12be 17df c43d
00000200: a105 6dbe 0d70 e6bc 9769 8cbd e829 53be
00000210: 35a9 abbd 559f 2cbe a7b7 593e a27a 45be
00000220: fe43 0b3e 74ce 993a b0f8 e93d 58cb 81bd
00000230: cff0 903e ffb8 43be 7c49 57be cfca 92bd

wordLinear.bias f4 [12]
-0.07685526 -0.2502684 -0.0045376625 0.0706828 0.1972378 -0.21914531 0.07569598 -0.11441587
-0.20861632 0.030339368 -0.04698833 0.23994777
00000000: 4a66 9dbd 2e23 80be acb0 94bb 25c2 903d
00000010: b5f8 493e a167 60be 7e06 9b3d de52 eabd
00000020: 849f 55be 448a f83c d676 40bd deb4 753e

emb_entity.weight f4 [50, 2]
-0.1306602 -0.7345425 0.9173722 -0.9365276 -1.2091831 0.2595282 0.29064623 0.69621927
-1.1211306 -0.84503806 0.2751112 0.67182064 -1.5875595 1.2849886 0.975319 -0.3471707
-0.36764577 1.572548 -0.72850096 -2.1710587 -0.4810857 -0.7994189 0.18268329 0.8254928
0.32335365 -1.146436 1.3447293 -1.3203253 -0.14166953 -0.6783125 -0.14905865 -0.058837425
1.0126188 1.100542 -0.877317 -0.8586262 0.3485778 2.040534 0.88733846 -0.5587828
-0.87705207 -1.4815111 0.012301916 -3.1670823 -1.1692538 -0.7144881 0.8645349 0.15395401
0.6230974 0.02993193 0.110541634 -0.7438859 0.22126149 0.7006789 0.49759063 0.17500313
0.95899034 2.8402574 -0.9083721 0.98056275 -0.059825126 1.3308614 0.5600299 0.48100877
-0.8239803 0.3960816 -0.65927166 -0.7143431 -1.2157387 0.16301447 -2.0794027 -0.48070893
-0.49646437 0.10496837 -2.243292 -0.6433592 -0.27915382 -0.7345581 -0.020474026 0.63161397
-0.431502 -1.2251695 0.15893483 -0.6960204 0.52890164 0.22269179 0.35829204 -0.5604138
0.06178865 -0.085349925 0.12445584 0.4342086 -0.2662972 0.6476062 -0.025574911 -0.48457882
-2.0939214 0.8407154 -0.2099935 -0.09563971
00000000: cacb 05be fa0a 3cbf e8d8 6a3f 46c0 6fbf
00000010: 83c6 9abf e1e0 843e 95cf 943e 6d3b 323f
00000020: 3581 8fbf 6a54 58bf 60db 8c3e 70fc 2b3f
00000030: 2635 cbbf 827a a43f 82ae 793f 5cc0 b1be
00000040: 113c bcbe 4149 c93f 0a7f 3abf a0f2 0ac0
00000050: dd50 f6be b8a6 4cbf 5411 3b3e 7f53 533f
00000060: 9c8e a53e 6abe 92bf 1720 ac3f 6b00 a9bf
00000070: d111 11be e3a5 2dbf d5a2 18be 83ff 70bd
00000080: 7e9d 813f 8fde 8c3f d997 60bf edce 5bbf
00000090: ca78 b23e 1c98 0240 9d28 633f 640c 0fbf
000000a0: 7c86 60bf 28a2 bdbf fa8d 493c 7ab1 4ac0
000000b0: 1caa 95bf b1e8 36bf 2952 5d3f 1fa6 1d3e
000000c0: 5083 1f3f cf33 f53c a763 e23d 4e6f 3ebf
000000d0: 5f92 623e b15f 333f 33c4 fe3e 0534 333e
000000e0: 6480 753f c7c6 3540 138b 68bf 2906 7b3f
000000f0: 310b 75bd ab59 aa3f 1f5e 0f3f c846 f63e
00000100: 5ff0 52bf 35cb ca3e 07c6 28bf 30df 36bf
00000110: 539d 9bbf 44ed 263e ef14 05c0 7b1f f6be
00000120: 9430 febe a8f9 d63d 1992 0fc0 30b3 24bf
00000130: 40ed 8ebe 000c 3cbf 25b9 a7bc 74b1 213f
00000140: d5ed dcbe 5bd2 9cbf d0bf 223e 652e 32bf
00000150: 1966 073f 5109 643e 0e72 b73e 4777 0fbf
00000160: 1816 7d3d f1cb aebd b4e2 fe3d 9750 de3e
00000170: 1b58 88be 85c9 253f 7a82 d1bc b71a f8be
00000180: cf02 06c0 2039 573f 8908 57be c1de c3bd

line_entity.weight f4 [2, 2]
-0.12353964 -0.5434629 0.14492252 -0.42439413
00000000: 5a02 fdbd 6220 0bbf 9266 143e 304a d9be

line_entity.bias f4 [2]
0.27417672 -0.31954074
00000000: e460 8c3e d89a a3be

line_bifreq.weight f4 [2, 2]
0.2154387 -0.22321214 -0.4636808 -0.07722894
00000000: f69b 5c3e b991 64be 9267 edbe 352a 9ebd

line_bifreq.bias f4 [2]
-0.35045332 -0.040001318
00000000: 9e6e b3be 6cd8 23bd

line_trifreq.weight f4 [2, 3]
0.56647485 0.2507321 0.45194465 -0.626639 0.10872175 0.16386767
00000000: 7f04 113f f55f 803e 4a65 e73e 6a6b 20bf
00000010: 82a9 de3d edcc 273e

line_trifreq.bias f4 [2]
-0.21527071 -0.23678045
00000000: ed6f 5cbe 9376 72be

phaseAttention.linear_layers.0.weight f4 [18, 18]
0.019738099 0.38966852 0.10527547 0.029135553 0.012015183 -0.190885 -0.069624 -0.100064054
-0.07079366 -0.16001657 0.005396042 0.21989049 0.35593608 -0.089721285 -0.26662406 0.06576186
-0.19703661 -0.36090916 -0.114731506 0.3430043 0.018648546 -0.04603163 0.28196934 0.026205596
-0.050307635 0.09215976 -0.1289935 -0.33494306 0.18029638 0.29293206 0.11929877 -0.21569873
-0.3173788 -0.13782546 -0.12519655 -0.13185441 -0.17893557 0.008522273 -0.021187836 0.06691609
0.0885238 -0.09557356 0.043096118 0.055459592 0.09590206 -0.093289 0.32333064 -0.11877842
0.3209145 0.1093824 -0.17924951 -0.11848847 0.04358763 0.008165675 -0.077222645 0.05435287
0.018656736 0.05694703 0.16144137 -0.1970951 -0.019175755 -0.3317266 -0.24343339 -0.20020588
0.0037781182 0.27442357 -0.013286499 0.17851526 -0.34651387 -0.019085731 -0.14418148 0.0532904
0.12989704 0.034331854 0.10611357 -0.0032859114 0.23919018 0.0010897424 -0.02226566 -0.29996988
0.1137218 -0.21121286 -0.030714683 0.20216146 0.29692617 0.17247775 0.009998187 -0.19142273
-0.0010024477 -0.18731315 0.056292545 -0.13990533 -0.06424195 0.18627118 0.01975062 -0.038726594
0.22269472 0.16253589 -0.078563295 0.11775195 -0.045114387 -0.3118212 -0.36080432 0.27119216
0.17556097 0.087795466 0.26870054 -0.059842195 0.19005924 -0.1358339 -0.27180317 0.048896115
0.06001293 0.2507014 0.042525116 0.1597554 0.20096864 0.24183698 -0.3164078 -0.1859781
-0.12671334 0.0685595 0.1438194 -0.07065221 0.16820878 0.024144055 0.1402497 0.3586058
-0.12752488 -0.009028956 0.02505407 -0.3031016 -0.22166143 -0.32624575 0.00361696 0.015272309
0.19972607 0.3478544 0.12483126 -0.184678 -0.17855556 0.099532366 -0.3779555 0.057756517
-0.21503206 -0.23246631 0.17373511 -0.015655344 -0.24202667 0.23089398 -0.088170476 0.25102955
0.15035115 0.2692375 0.04421862 0.0688285 -0.15066677 -0.13500705 0.09586548 0.15609092
0.26376915 -0.11699075 -0.10329041 0.05162147 0.022492636 0.105468266 -0.26039657 -0.045235768
0.30565098 -0.08514877 0.2709959 0.14542565 0.09328879 0.07451423 -0.33370036 0.2529143
0.25065938 -0.10992738 0.2952239 0.30421215 0.06963752 0.3091956 -0.057408735 -0.14942738
0.2226044 -0.15069778 -0.18202601 -0.2929944 -0.13510464 -0.19997376 0.10694807 0.31743756
0.0076160785 -0.09479575 -0.35408247 -0.012060474 -0.24976294 0.094372705 -0.0050992994 0.16863835
-0.13003959 -0.19362289 0.20267163 -0.31737065 -0.3346117 0.07966118 0.073433265 -0.1028112
0.15548196 0.2878708 0.2864508 -0.08648283 -0.16078614 0.03175405 -0.3032403 0.1069002
0.04510062 -0.2330739 0.14772613 -0.034604944 -0.30077597 0.026236545 -0.047342997 -0.11193115
-0.08815295 0.026275191 -0.10959931 -0.06919663 -0.14164373 -0.12074695 0.081123024 0.14803836
0.0193343 -0.13246694 -0.15594557 -0.15357304 0.14779125 -0.12968121 -0.35813332 0.08004557
0.34319437 0.31837592 0.15019923 0.07043107 -0.35704386 -0.22429974 -0.11647925 -0.042289454
0.270701 0.34706524 -0.031829294 0.127658 0.14892934 0.24702679 0.1272019 0.1987395
00000000: cbb1 a13c a282 c73e aa9a d73d afad ee3c
00000010: 55db 443c 5c77 43be 0797 8ebd 62ee ccbd
00000020: 44fc 90bd 62db 23be 48d1 b03b f92a 613e
00000030: 413d b63e cbbf b7bd f382 88be 27ae 863d
00000040: f7c3 49be 16c9 b8be 5af8 eabd 429e af3e
00000050: d6c4 983c aa8b 3cbd 495e 903e 1ead d63c
00000060: 610f 4ebd 42be bc3d df16 04be a87d abbe
00000070: 9d9f 383e 31fb 953e ea52 f43d 21e0 5cbe
00000080: 797f a2be 1e22 0dbe 8633 00be d804 07be
00000090: e33a 37be 01a1 0b3c 1d92 adbc 4e0b 893d
000000a0: f74b b53d 12bc c3bd 8e85 303d 9929 633d
000000b0: 4d68 c43d 4e0e bfbd 988b a53e 1a42 f3bd
000000c0: e84e a43e e103 e03d 2f8d 37be 15aa f2bd
000000d0: f188 323d 53c9 053c e826 9ebd 1da1 5e3d
000000e0: 03d6 983c 4a41 693d e350 253e 4cd3 49be
000000f0: 7916 9dbc 12d8 a9be 9a46 79be c502 4dbe
00000100: 4e9a 773b 3f81 8c3e 9eaf 59bc b4cc 363e
00000110: 446a b1be ae59 9cbc 4fa4 13be 0947 5a3d
00000120: bb03 053e 8f9f 0c3d 1252 d93d 7258 57bb
00000130: 45ee 743e b0d5 8e3a 7966 b6bc a795 99be
00000140: fae6 e83d 2f48 58be 5c9d fbbc 6a03 4f3e
00000150: b506 983e 029e 303e 70cf 233c 5204 44be
00000160: 9064 83ba 05cf 3fbe 0393 663d 5843 0fbe
00000170: 4991 83bd dfbd 3e3e 0dcc a13c c79f 1ebd
00000180: 160a 643e cf6f 263e cbe5 a0bd ef27 f13d
00000190: ddc9 38bd 07a7 9fbe 58bb b8be b3d9 8a3e
000001a0: 41c6 333e 1cce b33d 1e93 893e 171d 75bd
000001b0: e49e 423e 0b18 0bbe c929 8bbe 4b47 483d
000001c0: 1ed0 753d ef5b 803e d12e 2e3d eb96 233e
000001d0: b9ca 4d3e 1da4 773e 3400 a2be 0b71 3ebe
000001e0: 24c1 01be ec68 8c3d 6545 133e 1bb2 90bd
000001f0: ec3e 2c3e c1c9 c53c 9e9d 0f3e 2e9b b73e
00000200: e295 02be 30ee 13bc 313e cd3c 2230 9bbe
00000210: 37fb 62be af09 a7be 850a 6d3b b538 7a3c
00000220: fe84 4c3e f919 b23e 88a7 ff3d 3b1c 3dbe
00000230: 45d7 36be a0d7 cb3d 6283 c1be 1992 6c3d
00000240: 5d31 5cbe a60b 6ebe 9ee7 313e a33f 80bc
00000250: d7d5 77be 796f 6c3e b992 b4bd f286 803e
00000260: a7f5 193e 7fd9 893e 951e 353d f5f5 8c3d
00000270: 6448 1abe 4a3f 0abe 1f55 c43d 4cd6 1f3e
00000280: c00c 873e d998 efbd ec89 d3bd 0971 533d
00000290: 7a42 b83c bfff d73d b352 85be 2449 39bd
000002a0: 497e 9c3e 7a62 aebd f9bf 8a3e 76ea 143e
000002b0: 310e bf3d eb9a 983d c6da aabe fc7d 813e
000002c0: 6d56 803e 9b21 e1bd 9627 973e b2c1 9b3e
000002d0: 1e9e 8e3d e34e 9e3e 6c25 6bbd 7e03 19be
000002e0: 68f2 633e 8550 1abe 0765 3abe 5d03 96be
000002f0: df58 0abe ecc5 4cbe 9707 db3d 2d87 a23e
00000300: 4c90 f93b 4624 c2bd 4c4a b5be 4b99 45bc
00000310: dbc1 7fbe 7a46 c13d 0618 a7bb 88af 2c3e
00000320: 1929 05be 1445 46be 2789 4f3e 687e a2be
00000330: 3a52 abbe 6725 a33d 2e64 963d ae8e d2bd
00000340: aa36 1f3e cd63 933e aea9 923e e91d b1bd
00000350: 1fa5 24be 8910 023d 5042 9bbe 7eee da3d
00000360: 6dbb 383d edaa 6ebe 8545 173e eabd 0dbd
00000370: 4fff 99be 06ee d63c bbea 41bd 293c e5bd
00000380: 8989 b4bd 123f d73c 9a75 e0bd f6b6 8dbd
00000390: 0e0b 11be 2d4a f7bd d423 a63d 5e97 173e
000003a0: f762 9e3c 6aa5 07be 32b0 1fbe 4042 1dbe
000003b0: 9756 173e 27cb 04be 405d b7be efee a33d
000003c0: 2cb7 af3e 2b02 a33e d4cd 193e 2a3e 903d
000003d0: 74ce b6be d5ae 65be ac8c eebd b537 2dbd
000003e0: 5299 8a3e 89b2 b13e 6f5f 02bd c7b8 023e
000003f0: ef80 183e 97f4 7c3e 3741 023e 5e82 4b3e

phaseAttention.linear_layers.0.bias f4 [18]
0.13903724 0.281047 0.24797386 0.027076693 0.3239187 -0.33177173 -0.115393706 0.06802166
0.0019271104 0.04773838 0.1681647 -0.09486413 0.14036615 -0.2873126 0.17406735 -0.2429518
0.13837563 -0.26227364
00000000: c75f 0e3e 64e5 8f3e dcec 7d3e f1cf dd3c
00000010: acd8 a53e fcdd a9be 8953 ecbd f14e 8b3d
00000020: 1897 fc3a 5289 433d 5e33 2c3e 2048 c2bd
00000030: 25bc 0f3e a31a 93be b63e 323e 5bc8 78be
00000040: 57b2 0d3e bb48 86be

phaseAttention.linear_layers.1.weight f4 [18, 18]
-0.104560465 0.0569127 0.12561221 0.0066975276 -0.044112455 0.18304858 0.031298175 -0.08804408
0.080985256 -0.061783016 -0.13957559 -0.12388185 -0.05071443 -0.25178576 0.07246464 0.20586301
-0.18808405 -0.055931598 0.20835403 -0.12084733 0.23917383 -0.06197618 0.19622402 -0.06545306
0.16700381 0.19304621 0.18385567 0.056710638 0.08246001 0.091508634 -0.24673767 -0.06237521
0.09984946 0.06935853 0.16989996 0.13457502 -0.08931458 -0.18490244 0.15360714 -0.1193021
0.13000576 -0.07001103 -0.14737174 -0.21782537 0.06439574 0.20030461 -0.15697573 0.12857209
-0.13812734 -0.31188658 -0.09796145 -0.05078876 -0.23936242 0.18136942 -0.16147274 0.2235251
0.037355896 0.03350828 0.17196412 0.04457062 0.008379948 -0.16794832 0.015420786 -0.026237337
0.22203203 0.016206754 -0.2950076 -0.23574184 -0.15933858 -0.15181167 0.05157003 -0.053775277
-0.092557006 -0.16057229 -0.12244576 0.046496376 0.16670242 0.1910511 0.15709922 -0.14395864
0.073478036 0.12446767 0.08320536 -0.049830083 -0.25734246 -0.21307237 -0.14225124 -0.09192501
-0.23737998 -0.10754706 -0.20525526 -0.22744213 -0.20489147 0.14349534 0.09875004 -0.17813863
-0.055969596 0.0045867143 0.031218017 0.12556565 -0.16656166 0.24103247 0.2643764 0.3575331
0.10415988 -0.14579636 0.14522143 0.1423728 -0.19767593 0.08773604 0.018589789 0.06371375
-0.14989296 0.11204987 0.16211025 -0.13846579 -0.14561255 -0.06901469 0.13689393 -0.2125522
0.044546727 0.29674464 -0.071934484 0.15282167 0.23752649 -0.101359256 -0.104892865 0.068915464
-0.16828187 -0.029510986 -0.096837506 -0.15102433 -0.1413662 -0.05847192 -0.2212738 0.1290204
-0.08739098 -0.18465485 -0.0446726 -0.31163204 -0.17760515 0.11231253 0.1893637 -0.19085246
-0.13038865 -0.21965024 0.16448061 -0.21537927 0.14947513 0.21508282 0.19744995 0.00036282
-0.19417267 -0.20493297 -0.020133205 -0.105344705 -0.006080455 0.3359359 0.22263822 0.18307832
-0.14770733 -0.05854844 0.18266976 0.17119431 0.058682326 -0.07078904 0.15281144 0.20920877
-0.16290063 -0.16708183 -0.21484302 0.04242237 0.1392691 0.22312954 0.32152882 0.026683688
-0.1410832 -0.22205696 0.11348994 0.17403895 -0.13529022 -0.15256046 -0.1608855 0.18996686
-0.17826308 -0.24694331 -0.07578219 -0.16970523 0.0010899161 0.13403964 -0.17737979 0.06542441
-0.14724189 -0.34739274 -0.2053431 0.1101781 -0.056501016 0.034061085 -0.108119525 0.15164693
0.11013075 -0.15543395 -0.07132439 0.113921955 -0.20296544 0.08677925 0.22523898 -0.026533905
-0.1313036 0.17734604 -0.032672692 -0.34253705 0.121030964 -0.03978904 0.16916639 0.2089337
0.04836934 0.1944422 0.14649244 0.09671018 -0.13198796 -0.10269251 0.115587525 -0.0838735
0.023749927 -0.23130599 0.09677234 -0.18532711 0.17144445 0.084328175 0.14628106 0.23400958
0.035911713 0.23846088 -0.21714817 0.043542568 0.062141486 0.08980275 -0.09961622 -0.18731208
-0.13744444 0.118207954 0.1157666 -0.20680994 -0.20962554 0.21143246 0.2466847 0.1989968
-0.21305194 0.10321619 0.0134598045 0.17809053 0.15963933 -0.0121479845 -0.14508045 0.16388747
00000000: cc23 d6bd 4b1d 693d 7da0 003e ef76 db3b
00000010: 43af 34bd 1671 3b3e 8432 003d 7450 b4bd
00000020: 99db a53d 3010 7dbd e7ec 0ebe c4b5 fdbd
00000030: efb9 4fbd 10ea 80be 5768 943d c1cd 523e
00000040: 1b99 40be 8818 65bd c25a 553e ce7e f7bd
00000050: fce9 743e bcda 7dbd f3ee 483e 410c 86bd
00000060: 0c03 2b3e e8ad 453e a944 3c3e 6a49 683d
00000070: cbe0 a83d e168 bb3d cda8 7cbe 267d 7fbd
00000080: e07d cc3d d80b 8e3d 41fa 2d3e 09ce 093e
00000090: 90ea b6bd 1157 3dbe 314b 1d3e a954 f4bd
000000a0: 3b20 053e f161 8fbd 9ee8 16be 9d0d 5fbe
000000b0: eae1 833d a71c 4d3e 3fbe 20be 67a8 033e
000000c0: 4171 0dbe 99af 9fbe 03a0 c8bd e007 50bd
000000d0: 6c1b 75be e8b8 393e 1c59 25be c4e3 643e
000000e0: 7f02 193d fa3f 093d 5d17 303e af8f 363d
000000f0: 0d4c 093c a5fa 2bbe 77a7 7c3c afef d6bc
00000100: 5d5c 633e 07c4 843c 3c0b 97be 4f66 71be
00000110: a729 23be 8574 1bbe 193b 533d 7743 5cbd
00000120: 878e bdbd 106d 24be d8c4 fabd fc72 3e3d
00000130: 0ab4 2a3e e6a2 433e 9ede 203e e569 13be
00000140: a77b 963d e8e8 fe3d 9267 aa3d a11a 4cbd
00000150: 64c2 83be a52f 5abe 4faa 11be 2e43 bcbd
00000160: bd13 73be a241 dcbd 6f2e 52be 97e6 68be
00000170: 12cf 51be 71f0 123e 763d ca3d f969 36be
00000180: 6040 65bd 264c 963b edbc ff3c 4894 003e
00000190: 248f 2abe 37d1 763e 585c 873e 940e b73e
000001a0: c651 d53d a44b 15be edb4 143e 2dca 113e
000001b0: 8f6b 4abe f4ae b33d 9d49 983c 5b7c 823d
000001c0: 8a7d 19be 677a e53d 3b00 263e fac9 0dbe
000001d0: 751b 15be 9357 8dbd ec2d 0c3e 49a7 59be
000001e0: a176 363d eaee 973e 6352 93bd 497d 1c3e
000001f0: 253a 733e 7195 cfbd 12d2 d6bd 8d23 8d3d
00000200: 1552 2cbe 06c1 f1bc be52 c6bd 1fa6 1abe
00000210: 4dc2 10be 4180 6fbd 9995 62be ec1d 043e
00000220: 0bfa b2bd 2916 3dbe 9efa 36bd 3c8e 9fbe
00000230: 20de 35be 1d04 e63d 8fe8 413e d46e 43be
00000240: 9a84 05be feeb 60be 9b6d 283e 628c 5cbe
00000250: 0210 193e ac3e 5c3e 5230 4a3e e038 be39
00000260: 33d5 46be f3d9 51be 64ee a4bc f7be d7bd
00000270: 8e3e c7bb caff ab3e 46fb 633e e278 3b3e
00000280: 9740 17be 7dd0 6fbd c80d 3b3e 904d 2f3e
00000290: e15c 703d d8f9 90bd 9a7a 1c3e d33a 563e
000002a0: 6ccf 26be 8017 2bbe cfff 5bbe 14c3 2d3d
000002b0: 8f9c 0e3e 127c 643e 6d9f a43e c097 da3c
000002c0: 1d78 10be e662 63be 6a6d e83d 4437 323e
000002d0: 8589 0abe cf38 1cbe 2bbf 24be ac86 423e
000002e0: 998a 36be b5de 7cbe b133 9bbd 35c7 2dbe
000002f0: 84db 8e3a b041 093e 0ca3 35be 3cfd 853d
00000300: 94c6 16be 76dd b1be 7645 52be 0ea5 e13d
00000310: 9c6d 67bd a383 0b3d c56d ddbd 5549 1b3e
00000320: 3b8c e13d 142a 1fbe 8612 92bd ea4f e93d
00000330: 2cd6 4fbe 52b9 b13d 0ca5 663e a25d d9bc
00000340: 7374 06be 339a 353e cdd3 05bd 0461 afbe
00000350: 15df f73d d5f9 22bd f439 2d3e b7f2 553e
00000360: ee1e 463d db1b 473e 1d02 163e fd0f c63d
00000370: da27 07be 7350 d2bd 27b9 ec3d dfc5 abbd
00000380: 358f c23c 7adb 6cbe 9430 c63d 64c6 3dbe
00000390: 228f 2f3e 40b4 ac3d b4ca 153e 35a0 6f3e
000003a0: 2918 133d 172f 743e 175c 5ebe b159 323d
000003b0: 1288 7e3d 81ea b73d 9703 ccbd bdce 3fbe
000003c0: 3cbe 0cbe 0317 f23d 0a17 ed3d fcc5 53be
000003d0: 14a8 56be c081 583e ea9a 7c3e d1c5 4b3e
000003e0: 4a2a 5abe 0363 d33d 8386 5c3c 5d5d 363e
000003f0: 7e78 233e 5708 47bc f88f 14be 1ed2 273e

phaseAttention.linear_layers.1.bias f4 [18]
-0.05225268 0.20140515 0.1618254 0.15232715 -0.15207097 -0.07254076 0.01587528 -0.213309
-0.12088139 0.1671044 -0.20696524 -0.054888114 -0.23153311 -0.08123131 0.22487496 0.027412849
-0.018004447 0.21145025
00000000: e806 56bd 273d 4e3e 8fb5 253e a6fb 1b3e
00000010: 7eb8 1bbe 4090 94bd e00c 823c ad6d 5abe
00000020: aa90 f7bd 6a1d 2b3e b2ee 53be 5cd2 60bd
00000030: 0417 6dbe 9a5c a6bd 9f45 663e e990 e03c
00000040: 107e 93bc 6a86 583e

phaseAttention.linear_layers.2.weight f4 [18, 18]
0.021214519 0.03078293 -0.1006133 0.14106476 -0.021043718 0.06772859 -0.11324195 0.20771098
0.1654281 -0.12387455 -0.19408578 0.20205525 0.053722214 -0.1495884 0.111880414 0.0811781
0.0832438 -0.095257 -0.026760729 0.07855475 0.013919789 0.22347431 0.051019408 0.21088824
-0.1400199 -0.024724474 -0.12324301 -0.08591154 -0.18316996 0.13316432 -0.06259162 0.31933975
-0.144873 0.101717174 0.088876486 0.18555695 0.24154799 0.11794489 -0.050892707 0.2013208
-0.087189004 0.07944045 0.24693578 0.14250493 0.23865724 -0.15751337 -0.05408135 -0.09190749
-0.22464213 0.15095562 -0.04251801 -0.06416499 -0.061831146 -0.14130487 -0.09165367 0.15693597
0.055536006 0.20352301 0.091073036 -0.14286509 0.14157286 -0.15474083 -0.10988533 -0.13034329
0.12620564 -0.08448239 0.022465367 0.015152848 -0.13650885 0.045986537 0.015820822 -0.06628044
-0.021139175 0.15811367 -0.15259749 -0.087211974 -0.03921133 0.1069641 0.11185784 0.11176849
-0.11423941 0.15249102 -0.1392241 0.19750375 0.2126652 0.20912783 0.13028641 -0.0204674
-0.053080294 0.2225004 0.038758997 -0.07022394 -0.16957235 0.15458657 0.027633168 0.105932266
0.22091901 -0.09700683 -0.16170856 0.115669325 0.21825339 -0.19510654 -0.1465066 0.23107776
-0.029220691 0.14061391 0.21043152 -0.2243957 -0.09283246 0.016735 -0.068725295 -0.07646246
-0.09727439 -0.06756995 0.15232001 0.15634733 0.1450012 -0.029905936 0.0015681073 0.028295958
0.1018986 -0.115853116 0.06461762 -0.08274972 0.17976342 0.17059048 -0.099492736 -0.17574976
-0.18250583 0.102580346 0.08081363 -0.023660209 0.10468642 -0.13063213 0.031686354 0.095023625
-0.15985271 0.096147634 0.16262016 -0.10982289 0.06989172 -0.06863798 0.2066959 0.031787656
0.037650965 -0.08373057 0.015323703 0.09938381 -0.00320343 -0.0521966 0.2522924 0.08884122
0.12073198 0.17898346 -0.22619213 0.20759343 0.18458812 0.061600123 -0.0011864537 -0.09206943
-0.20952302 -0.12613907 0.14641918 -0.022049012 -0.053024534 0.19797093 0.22291231 0.21357766
0.06838969 -0.122296795 -0.17563356 -0.006391392 0.061463434 -0.11465396 -0.036312237 -0.12393189
-0.023723345 0.12038236 0.011991367 0.01916214 0.2178285 0.13275747 0.056283962 0.10449873
0.08915454 0.07027343 -0.21462463 0.19448595 0.12701334 0.1495353 0.025044005 -0.08253841
-0.1176046 -0.075441256 -0.0037818176 -0.12779684 0.071413055 0.21166766 -0.09393601 -0.1755544
-0.008599907 0.006861336 -0.07790923 -0.09831846 0.05123375 -0.12313885 0.19992411 -0.22902516
-0.18039013 -0.09936601 -0.16248694 -0.15936255 0.145168 -0.06053738 0.008321388 -0.004976739
-0.0047813375 -0.16036327 -0.21652739 0.07591445 -0.0768211 -0.04482942 -0.13812348 -0.16462521
0.12173366 0.04286703 -0.11012602 0.0693514 0.060543753 -0.0015271758 0.0044475906 0.16063812
-0.073211834 -0.006739332 -0.13515456 -0.07155593 0.13068093 0.23326014 0.23831177 0.1539316
0.13697964 -0.058170058 0.03237504 -0.035773247 0.03670599 -0.065501265 -0.16603082 -0.08720491
-0.21803749 -0.05018945 -0.08401006 -0.13581905 -0.14697745 0.034065954 0.041738097 0.10468332
00000000: 12ca ad3c 7c2c fc3c 590e cebd 4873 103e
00000010: e063 acbc 49b5 8a3d 65eb e7bd 30b2 543e
00000020: fc65 293e f1b1 fdbd 6cbe 46be 92e7 4e3e
00000030: d30b 5c3d b42d 19be 8f21 e53d b440 a63d
00000040: ba7b aa3d 1a16 c3bd 5139 dbbc 50e1 a03d
00000050: d40f 643c 73d6 643e baf9 503d 16f3 573e
00000060: 6061 0fbe fb8a cabc d566 fcbd 64f2 afbd
00000070: e890 3bbe 3a5c 083e 0930 80bd 8080 a33e
00000080: 9659 14be 1851 d03d e004 b63d a402 3e3e
00000090: 5b58 773e 178d f13d df74 50bd 0a27 4e3e
000000a0: 2690 b2bd adb1 a23d bcdc 7c3e d0ec 113e
000000b0: 9062 743e 2f4b 21be 6884 5dbd fe39 bcbd
000000c0: 9608 66be 1c94 1a3e 5d27 2ebd ef68 83bd
000000d0: a842 7dbd 39b2 10be ebb4 bbbd d3b3 203e
000000e0: b979 633d 5668 503e 8084 ba3d 3a4b 12be
000000f0: 7af8 103e 6174 1ebe 8f0b e1bd b678 05be
00000100: 0d3c 013e 1a05 adbd 4a09 b83c a743 783c
00000110: fac8 0bbe 615c 3c3d ab9a 813c 0abe 87bd
00000120: 102c adbc 8de8 213e 8442 1cbe 319c b2bd
00000130: 0f9c 20bd fe0f db3d b915 e53d e1e6 e43d
00000140: 5af6 e9bd 9b26 1c3e c390 0ebe 6c3e 4a3e
00000150: e8c4 593e 9b25 563e cd69 053e 40ab a7bc
00000160: b96a 59bd 25d7 633e c1c1 1e3d 92d1 8fbd
00000170: 60a4 2dbe f14b 1e3e f45e e23c 04f3 d83d
00000180: 9838 623e 84ab c6bd ee96 25be 0ae4 ec3d
00000190: d17d 5f3e 02ca 47be d305 16be a69f 6c3e
000001a0: 3b60 efbc 18fd 0f3e 5c7b 573e fdc7 65be
000001b0: f21e bebd d717 893c d9bf 8cbd 5a98 9cbd
000001c0: cc37 c7bd 1d62 8abd c7f9 1b3e 8419 203e
000001d0: 327b 143e 4bfd f4bc f388 cd3a edcc e73c
000001e0: 37b0 d03d 6644 edbd 3e56 843d af78 a9bd
000001f0: e713 383e 45af 2e3e d9c2 cbbd bff7 33be
00000200: cfe2 3abe a515 d23d 9e81 a53d 0ed3 c1bc
00000210: d565 d63d 6ec4 05be 8dc9 013d bf9b c23d
00000220: 6eb0 23be 0de9 c43d e685 263e d3ea e0bd
00000230: 6423 8f3d 1292 8cbd 17a8 533e c633 023d
00000240: e637 1a3d ef7a abbd 4510 7b3c bd89 cb3d
00000250: a3f0 51bb 1acc 55bd 782c 813e 63f2 b53d
00000260: 5442 f73d 7147 373e e99e 67be 5f93 543e
00000270: ab04 3d3e 6950 7c3d c882 9bba e68e bcbd
00000280: 348d 56be 9a2a 01be e9ee 153e 21a0 b4bc
00000290: 4130 59bd e4b8 4a3e 2043 643e 1ab4 5a3e
000002a0: e50f 8c3d be76 fabd 49d9 33be e26e d1bb
000002b0: 15c1 7b3d b2cf eabd 24bc 14bd 01d0 fdbd
000002c0: 7657 c2bc 078b f63d 7077 443c ecf9 9c3c
000002d0: 6f0e 5f3e 93f1 073e 038a 663d 6e03 d63d
000002e0: a896 b63d 84eb 8f3d 8fc6 5bbe 5327 473e
000002f0: c90f 023e c81f 193e 1629 cd3c e609 a9bd
00000300: aeda f0bd f280 9abd 5fd8 77bb 2ddd 02be
00000310: 0241 923d 68bf 583e 8661 c0bd 88c4 33be
00000320: a0e6 0cbc 0fd5 e03b e08e 9fbd 305b c9bd
00000330: 7bda 513d 3930 fcbd e8b8 4c3e 9285 6abe
00000340: 31b8 38be 6880 cbbd fa62 26be f02f 23be
00000350: eca6 143e 0bf6 77bd 6e56 083c ea13 a3bb
00000360: c4ac 9cbb 4536 24be 5bb9 5dbe 0979 9b3d
00000370: 6254 9dbd 0e9f 37bd 3e70 0dbe 8393 28be
00000380: 7f4f f93d 5795 2f3d c089 e1bd 1b08 8e3d
00000390: bafc 773d 842b c8ba 18bd 913b 527e 243e
000003a0: 16f0 95bd 9dd5 dcbb f565 0abe ea8b 92bd
000003b0: 39d1 053e bfdb 6e3e 0008 743e 3fa0 1d3e
000003c0: 6444 0c3e ba43 6ebd b19b 043d f886 12bd
000003d0: 0559 163d 8725 86bd fc03 2abe 7d98 b2bd
000003e0: 3845 5fbe 7493 4dbd 770d acbd 2614 0bbe
000003f0: 4281 16be be88 0b3d 91f5 2a3d 3564 d63d

phaseAttention.linear_layers.2.bias f4 [18]
0.11265647 -0.08594419 0.17324917 -0.04713835 0.11650634 -0.16588487 0.15830125 0.121660024
-0.05323478 0.07840849 -0.21975149 0.18886913 0.18859708 -0.089450076 -0.22402082 0.07419546
0.17234424 -0.0025163987
00000000: 6fb8 e63d 8203 b0bd 3b68 313e 2414 41bd
00000010: e09a ee3d b9dd 29be b919 223e e428 f93d
00000020: b60c 5abd a194 a03d 8906 61be e966 413e
00000030: 981f 413e 9a31 b7bd b765 65be caf3 973d
00000040: 027b 303e 2aea 24bb
